best_mpnn_model.pth (torch, 107226 bytes, 23 tensors)

conv1.bias f4 [32]
00000000: 6a3c 53bd 202f 76be 5869 e4bc d18f 2bbb
00000010: 2eb4 0fbc 5d65 abbe 4155 f0be eb24 343e
00000020: 217e 1abe 5eda e7bc 95fd 87be 4b2d 3039
00000030: 1e8a 23bd 9c8f 9dbe 6cd0 60be ec54 c5be
00000040: 1e2f 8ebe 355f b9be ec80 29bd 8fb2 8b3d
00000050: d17a f8be f7b8 0abe 855a 293a 320a 0dbe
00000060: 8abe 013e 08ff c43c e72c 913e b28b 6fbe
00000070: 405a f7bd 1659 e5be eec0 2f3d c990 bcbe
-0.051571287 -0.24041414 -0.027882263 -0.002617825 -0.0087709855 -0.33475772 -0.46940044 0.17592208
-0.15087177 -0.028302368 -0.26560655 0.00016801541 -0.03992664 -0.30773628 -0.21954507 -0.38541353
-0.27770323 -0.3620545 -0.041382715 0.06821167 -0.485312 -0.13547121 0.0006460327 -0.1377342
0.12670341 0.02404739 0.2835457 -0.23393133 -0.12077761 -0.4479453 0.0429086 -0.36829212

conv1.lin.weight f4 [32, 8]
00000000: 7c8f ba3d 0761 3ebf 98aa d83e 04dc d23e
00000010: 79b9 cd3e 9c24 d4be 1067 33be d051 18be
00000020: d563 953e df84 c03e 6250 0c3e 794c 8b3e
00000030: bcc6 163e 65ec c43d 25a0 193f ee2c a9be
00000040: b8f9 54bd c368 8d3d 163c 173f be3a 7fbd
00000050: 5a79 12bf 450d 023f 33c2 4d3f 31a1 7abe
00000060: 49ae 05be 2166 cfbd 6598 04be 1391 97be
00000070: 9b6b 4cbf 20fb 5ebe 91fc 82bf fd1d 0e3e
00000080: 2bcb 033f f93f b0bd 7bd2 b13d 0ca1 8cbe
00000090: a608 b1be 6592 f4bd 5c9f 1cbe 4de0 46bf
000000a0: 0f39 6bbe 5803 ad3c 9440 11bd 07da ed3c
000000b0: e990 063e 7763 16bf 31e9 f5be 939f 02bf
000000c0: 2076 9dbe 2421 57be b72f 50bd 95c6 55be
000000d0: 7f00 b1be 704c 133d 6864 3a3f 5807 953e
000000e0: 9ea0 48bf 9064 42bd 862e 2a3f 9590 f73b
000000f0: 9319 943d 7ec7 103f 7dad 883d 569d 013d
00000100: 4835 95bd b692 dfbd 44d7 033e 6df9 a83d
00000110: 5d97 0ebf 02bb b1be 9d55 12bf 5d4a 4ebf
00000120: 8b22 0ebf 49ef 1ebc 1719 25be afb7 6cbe
00000130: 1929 2ebf a1f2 60be 4fbd a5be 0147 52be
00000140: 08cf 23bd 7be9 043e 331c 9fbe 8e79 1cbe
00000150: 8bc1 9fbe 6ea1 d9be 5cd6 14be 9fdc 36bf
00000160: 3265 71bf be9f ebbd 2000 153e 3bf9 00bf
00000170: 39f2 2bbe 0721 29bf cfa6 5a3e 66f3 383e
00000180: 882e c4bc 257e 69bd 37db c7be c807 2b3e
00000190: e87a a93d 1c84 1f3c 3cd6 86bd cade 9f3f
000001a0: 201d a3bd 18ee eabd 8797 38bf 959a aabe
000001b0: 2105 5b3e b6ee 82bc 1325 1bbe e21d 0abf
000001c0: 05ed fcbe e7ed fcbd 09d0 35be 0ace 71bd
000001d0: 2c2d 23bf c466 89be f9e3 64be 4c20 91be
000001e0: 5547 a0be 87c7 32be 26ef 923e 787f ccbe
000001f0: d308 403f 73db 9cbe 3240 063e b999 eb3e
00000200: 534c b83d 5c42 143f f3df 35be a0e6 083e
00000210: 63ff d03e 9e4e 943e 108b f23e 76da d43d
00000220: d893 723e 166a 703e 1640 213e c2a8 0bbf
00000230: b439 8cbe 61e0 83be 7a4c fbbd 9240 10bf
00000240: d9a7 74be de82 053f 876f c73e 6924 1bbe
00000250: 106e e5be ca0e a1be d577 d8be 8eef 4d3c
00000260: aef9 d6be 6062 5ebe 801e 8d3c c153 bdbe
00000270: 7440 493f 431d 143e 1865 063f 4fd1 e0bd
00000280: 1ca7 1a3d 13aa 953e 4895 3cbe 21c7 d0be
00000290: 6b92 41be 53cb 0fbf a807 60be fdf4 c73e
000002a0: cd61 a93e b7ae 9bbe 2fa6 8dbe 7d7f dcbd
000002b0: 51d4 b5bc d1f1 a23d 3d03 4a3d f91d 6fbf
000002c0: bb24 65be 88dc 483e bfee 5cbe 58bd de3e
000002d0: 5ee7 c7bd 2c49 9d3e 5541 283f f04f de3e
000002e0: 3596 73be ac5a a73e a580 39be bf6d 963e
000002f0: 110e 9e3e 3d6f 633e 1add 18bf 53a0 413f
00000300: 708f 173f 4d0f efbe 2e1f bcbe 7b06 aabe
00000310: fa45 32bf 3873 c7bd 17da 83be f831 32bd
00000320: a69c 25bf 1000 9f3e 23bb e03d 4e9a 33bf
00000330: c3d3 c93d 7717 1b3d 9d0c 2a3e 9db1 88be
00000340: 5cd3 033e 0f52 86be 36b3 6ebf a460 adbd
00000350: f8df ad3d ce8f f43d 92ce 053f 27d1 0f3e
00000360: 5eca 2c3e 43db 1dba 5c2b 95be 5865 9d3d
00000370: a9aa d1be 5aad 70be 9baa 06bf 5400 a2be
00000380: c768 993e 41d7 bcbe 1156 2ebf d65c d33e
00000390: c0fd 70be d3fe 25be cc7f 1a3e 8fbe 7ebe
000003a0: 6f63 38bd 7190 1f3f 96c0 e83e 0d7f 0b3f
000003b0: 7387 9abd 355f 08be 40a2 93be 06fc 46be
000003c0: 4c9c c53b e9f7 993d ca86 64bc aca3 91bd
000003d0: d56e bbbe c7c0 25be 58fa d03e f4c3 773f
000003e0: 445b 0b3f a4c2 133e f89b 80bd 401d 5ebd
000003f0: 37b6 ef3d 1c67 a6be 82cc 7f3e 45dc 81be
0.09109399 -0.743668 0.42317653 0.41183484 0.40180567 -0.4143418 -0.17519784 -0.14874959
0.29177728 0.37601373 0.13702539 0.27206782 0.14724249 0.09615401 0.60009986 -0.3304209
-0.051995963 0.06904747 0.5907606 -0.06231188 -0.5721642 0.508015 0.8037445 -0.24475552
-0.13054766 -0.101269014 -0.12948759 -0.2960287 -0.7985169 -0.21775484 -1.0233327 0.13878627
0.51481885 -0.08605952 0.08682724 -0.2746662 -0.3457691 -0.11941985 -0.15295166 -0.77686006
-0.22970985 0.021119758 -0.035461977 0.029034628 0.13141216 -0.5874552 -0.48029473 -0.5102474
-0.30754185 -0.21008736 -0.050826754 -0.20876534 -0.3457069 0.03596157 0.7280946 0.29107165
-0.7837008 -0.047459185 0.6647724 0.0075550773 0.072314404 0.565544 0.06673715 0.031644188
-0.07285553 -0.10916655 0.12875086 0.08250699 -0.5569971 -0.34712988 -0.57161885 -0.8058222
-0.5552146 -0.009700605 -0.16122852 -0.23116945 -0.6803146 -0.21967556 -0.32370993 -0.20534898
-0.039992362 0.1297969 -0.31076202 -0.15280744 -0.3120235 -0.42505974 -0.14534897 -0.7143039
-0.94295037 -0.11505078 0.14550829 -0.50380296 -0.1679162 -0.6606602 0.21352695 0.18061599
-0.02394797 -0.057005066 -0.39034435 0.16702187 0.08275396 0.009736087 -0.06583831 1.2489865
-0.079645395 -0.11471194 -0.7210621 -0.33321062 0.21388675 -0.015982967 -0.15150861 -0.5395185
-0.49399582 -0.12350064 -0.1775514 -0.059034385 -0.637408 -0.26836216 -0.2235259 -0.28344953
-0.31304422 -0.17458926 0.2869808 -0.39941 0.75013465 -0.30636176 0.13110426 0.4601572
0.08998933 0.57913756 -0.17761211 0.13369226 0.40819845 0.2896623 0.4737172 0.103932306
0.2368921 0.23477969 0.15747103 -0.5455438 -0.27387774 -0.25757125 -0.12270446 -0.56348526
-0.23892154 0.5215281 0.38952276 -0.15150608 -0.44810534 -0.31456596 -0.42278925 0.012569321
-0.41987365 -0.21717215 0.017226458 -0.36977962 0.7861397 0.14464287 0.52498007 -0.109774224
0.037757024 0.2923132 -0.18416321 -0.40776923 -0.1890351 -0.56169623 -0.2187792 0.390541
0.3308243 -0.30406734 -0.2766585 -0.10766504 -0.022195967 0.07956279 0.049319495 -0.9340511
-0.22377293 0.19615376 -0.2157545 0.43503833 -0.09760927 0.30719888 0.6572469 0.43420362
-0.23787768 0.32686365 -0.1811548 0.29380605 0.30870107 0.22210403 -0.59712374 0.7563526
0.59203243 -0.4669136 -0.36742538 -0.3320807 -0.69638026 -0.09738773 -0.25752327 -0.043504685
-0.6469215 0.31054735 0.109731935 -0.70157325 0.098548435 0.037864175 0.16606374 -0.26698008
0.12873596 -0.2623448 -0.93242204 -0.08465698 0.08489984 0.11941491 0.52268326 0.14044629
0.16874072 -0.0006021747 -0.29134643 0.076853454 -0.40950516 -0.23503628 -0.52604073 -0.31640875
0.2996275 -0.36882976 -0.68100077 0.41281766 -0.23534298 -0.16210489 0.15087813 -0.2487738
-0.045016702 0.62329775 0.4545943 0.5449074 -0.07545366 -0.13317569 -0.28834724 -0.19432077
0.006030595 0.07517988 -0.013948152 -0.07111296 -0.36607996 -0.1618682 0.40815997 0.96783376
0.54436135 0.14429718 -0.06279749 -0.054227114 0.117046766 -0.3250054 0.24980357 -0.25363365

conv2.bias f4 [32]
00000000: 4ea3 0ebf 2f9a 92be 8f2b 623c d7dd d33e
00000010: 4793 40be c654 d1bd 8ef4 833d aae9 9bbe
00000020: cdc2 9bbe 79c0 07be e813 f6be 3694 9fbe
00000030: 078e c7bd 2c0c 8cbe 4467 93be 88ca 57bd
00000040: 62d3 a4be 19f9 983d f657 d7be c341 61bf
00000050: 3c43 b8bc 4ceb b7bc 91bd 2fbe d959 9abe
00000060: 491f 7ebd 762a c73d 2625 ed3d 09fc 22be
00000070: 7540 33bf 5172 cdbe 57c1 21be ae7e 40be
-0.55717933 -0.28633258 0.0138043305 0.41380188 -0.18806182 -0.102212474 0.064431295 -0.3045171
-0.3042206 -0.13257016 -0.48062062 -0.31167763 -0.097438864 -0.27353036 -0.28789723 -0.052683383
-0.32192522 0.074693866 -0.42059296 -0.8799097 -0.022492997 -0.022451065 -0.17162158 -0.30146673
-0.062041555 0.09724896 0.11579351 -0.15916456 -0.7002023 -0.4012628 -0.1579641 -0.18798324

conv2.lin.weight f4 [32, 32]
00000000: 41ef eb3d 8db5 01be a38d 67be dd44 533e
00000010: b2e2 b3be 572f 213f f0e6 cc3e e3b9 133f
00000020: de3b 6ebe 0bc2 7c3d b0b0 823e e455 d33d
00000030: ee7f 303e a436 6cbd 946b d1bd 8dc2 313e
00000040: 0bd1 84bc 20f3 863e ff8f 3cbe bd0e c23e
00000050: 8864 dfbe c0af 9bbe d87b 17be d04d 85be
00000060: 24e9 333f 83cd dd3d a328 1e3f 1e7a 7fba
00000070: 56d2 91be 9f7f 10be 9884 413d 1ea2 403d
00000080: b9e6 a53c 02c0 cb3c 5e02 ba3d 21e1 5a3e
00000090: 9d5f eb3d 1e60 a9bd 3b19 b2bd d5ea bcbd
000000a0: 5379 193d 3d93 903e 23b1 c93e 1013 cd3d
000000b0: a2c9 31be 04a9 af3d e978 ccbc 5fd7 0e3e
000000c0: c013 0e3e 9c41 a63e a2b1 92bd 4186 073e
000000d0: b9e2 663e 6722 b23e 4ab4 46bd 5243 bf3d
000000e0: 49a8 a93d a6c2 16be 4973 473d bfb5 23be
000000f0: 63c7 a0bd df2e 3ebe 5052 67be 8843 8d3e
00000100: 313e 22bf 968b bcbe ecbb 2ebf 8ed3 e53b
00000110: b9cd a6bc 3668 993e 6aaf a13e 3dce 853d
00000120: 1f97 b23e 3fa7 db3e a57b 753e 4867 b4bd
00000130: cf7c 243e 9c22 61be 4c06 6f3f a99e 42be
00000140: 0078 eebd 0217 f9bd d3c8 423e 0086 bebd
00000150: ac5f d6be 7ed2 b63d 72d8 c23e dc64 823e
00000160: a393 143f 8ac5 49be 29d9 893c 470c 94bb
00000170: 28c2 453e 301e b83d dc37 ca3e 4106 b3be
00000180: c502 a23e e15e 70bd b73b 423e 25f6 d0be
00000190: 6bd8 1dbf 24b8 c43e 4c25 fa3e 4ade da3d
000001a0: bd63 3fbe 1a99 503d b760 9fbe c301 133e
000001b0: 67a5 81be de1f 5fbe 316e 1c3e 986b b2be
000001c0: 6147 06bd 7d5f 88be 2527 e1bd 736c 30be
000001d0: 7b11 a73c 1dce 24be 9470 433e e556 40bf
000001e0: a20e b73e 8ff4 a0be d533 bb3d 2848 e7be
000001f0: 9ee4 833b 8945 513e 8c1a 4d3e e0ef fc3d
00000200: 11ed 3dbf 52a1 7bbb 882d 123d 8ff8 a13e
00000210: af79 05be ef0e 793e e882 9bbe f163 d03d
00000220: 21ac 8d3e c2f2 d53e 1f7a 0d3f 7684 b83e
00000230: 660b 5abe 5429 c4be a466 033f cdf1 183e
00000240: 3d25 33bd c0cd 2e3e 3730 883e c3a1 ff3e
00000250: dea1 013d 49c9 9e3e 425f 0ebe 308f 96be
00000260: 0e16 9ebe 0525 063e 6f7b 9dbe f815 3a3e
00000270: 6973 773c 45ec 8a3e e21f 10bf 7ff2 4abe
00000280: 33bc 093e bdf8 81bd 0d6d 84bd e453 cd3e
00000290: 20e8 74be ae19 893d f4c6 e33e 62c7 ce3c
000002a0: e779 2d3e 2a71 823e 2806 b63e 777d df3e
000002b0: 9985 e2be 63ab 4a3e d2dd fd3e ebac 223e
000002c0: f06d 2cbf 4a51 a43e 5800 c53e d5d3 b8be
000002d0: d825 7d3e 0afc 53be 650c a2bd b1e4 dcbe
000002e0: 59b7 b93c 50a4 193e 913b afbd 2ce4 41bc
000002f0: db7b debd dfc3 10be afa5 16bd 17af 5bbf
00000300: 9a71 1abe 5998 713e d00b 373e 1302 513d
00000310: 51e3 2a3c e416 cabb 36b7 093f f662 dd3e
00000320: 9090 67bd 66a3 e6be fb70 acbe 0457 173e
00000330: 082c 1d3e e59b 30be 03d8 c7be 9ca2 d93e
00000340: ce37 cf3e 89da 4a3e e5a3 953d 6d20 cc3e
00000350: 3531 2abe 8337 09be aacb 1e3f ccb2 c23e
00000360: b11b 71be fda5 173e 68ab 24bd 084e c3be
00000370: 6b6d 94bd 504a adbd 2dd2 3a3f 86e2 0cbd
00000380: b0e3 3fbf 5ea9 30be 0eff e9be 3d90 a8bd
00000390: be45 71be f31c 88bb b4b0 8dbe 39b1 df3e
000003a0: cea0 063f 2116 8f3d 5bc2 443e 2b13 d0be
000003b0: 5702 32bf 09d9 a9bb 08f6 d33e 51e0 7dbe
000003c0: 7306 debd 18af a8be 3913 8abd 2c63 0fbe
000003d0: e9e4 803e 3fb5 63be 3963 73bf 2fb5 2fbe
000003e0: 8567 693d e2a2 ad3d be1e 80be 7ac6 c23e
000003f0: 5d0d ccbe 12c3 bfbd 6d43 02bf 866e 293e
0.115202434 -0.12666912 -0.22612624 0.20631738 -0.35133892 0.6296286 0.4001994 0.57705516
-0.23265025 0.06170849 0.25525427 0.10319117 0.17236301 -0.057669297 -0.10225597 0.17359371
-0.01621296 0.26357365 -0.18414305 0.3790187 -0.43631387 -0.30407524 -0.14793336 -0.2603593
0.7027762 0.10830214 0.61780757 -0.0009745675 -0.28480786 -0.14111184 0.047245592 0.047029607
0.020251619 0.02487183 0.09082483 0.21374942 0.11492846 -0.08270286 -0.086962186 -0.09224478
0.03746922 0.28237334 0.39392957 0.100134015 -0.17362073 0.08577159 -0.024959998 0.13949345
0.13874722 0.3247193 -0.07162787 0.13234808 0.22547425 0.34791872 -0.04851178 0.09339012
0.08284051 -0.1472269 0.04869393 -0.159873 -0.0785053 -0.18572567 -0.22589993 0.27590585
-0.63376147 -0.36825246 -0.68255496 0.0070137447 -0.020361768 0.2996232 0.31579143 0.065334775
0.3488092 0.42901036 0.23972948 -0.08808762 0.16063236 -0.21985859 0.93368983 -0.19005837
-0.11643982 -0.121625915 0.19021921 -0.09302902 -0.41869867 0.08926867 0.3805576 0.25467575
0.58037776 -0.19704261 0.016827183 -0.004518065 0.19312346 0.08990133 0.39495742 -0.3496571
0.31642738 -0.058684234 0.18968092 -0.40812793 -0.6165835 0.38421738 0.4885658 0.106869295
-0.18690391 0.05092726 -0.31128475 0.14356141 -0.25321504 -0.217895 0.1527641 -0.34847713
-0.032782916 -0.26635352 -0.10993794 -0.1722887 0.020394078 -0.16094251 0.19085914 -0.7513259
0.3575335 -0.31436583 0.091407456 -0.45172238 0.004025056 0.20436682 0.20029658 0.1235044
-0.7418986 -0.0038395715 0.035687953 0.31634948 -0.130347 0.24322103 -0.3037331 0.10175312
0.27670386 0.41786772 0.55264467 0.3603856 -0.2129341 -0.3831278 0.5132849 0.1493599
-0.043736685 0.17070675 0.26599285 0.49928102 0.03164851 0.31012943 -0.13903525 -0.29406118
-0.308762 0.1310006 -0.30758235 0.18172443 0.0151031995 0.27133384 -0.5629865 -0.19819067
0.13450699 -0.06346271 -0.06466112 0.40103066 -0.23916674 0.06694351 0.44487727 0.025241558
0.16941033 0.25476962 0.35551572 0.4365041 -0.44242552 0.19791941 0.49583298 0.15886275
-0.6735525 0.3209327 0.38476825 -0.36099115 0.24721467 -0.20701614 -0.0791252 -0.43143228
0.022670435 0.15004086 -0.08556283 -0.011834186 -0.10863467 -0.14137219 -0.036779102 -0.8581404
-0.15082398 0.23593272 0.178756 0.05102737 0.010430173 -0.0061672796 0.5379518 0.43239564
-0.05653435 -0.45046538 -0.33679947 0.14779288 0.15348828 -0.17246969 -0.3903199 0.42506874
0.40472263 0.19809927 0.07306651 0.3986849 -0.16620333 -0.13400082 0.62029517 0.38027036
-0.2354572 0.14809413 -0.04020253 -0.3814547 -0.07247432 -0.084614396 0.7297695 -0.034395717
-0.749568 -0.17252108 -0.45702404 -0.08230636 -0.23561761 -0.0041538416 -0.27673876 0.43689898
0.5258912 0.06986643 0.19214766 -0.40639624 -0.6953482 -0.0051833433 0.41398644 -0.24792601
-0.10841074 -0.32946086 -0.06741948 -0.14002675 0.25174645 -0.22237109 -0.95073277 -0.1715896
0.05698349 0.08478333 -0.25023454 0.3804205 -0.39853945 -0.093633786 -0.50884134 0.16546068

bn1.weight f4 [32]
00000000: 75cf 8d3f 313f 463f 166a 973f 256f 8d3f
00000010: 0974 923f 27fa 653f e191 7d3f 138a 833f
00000020: 2965 943f d8d7 953f 8dc6 a33f d853 783f
00000030: 7d64 613f b895 953f 6e4b 903f 14f1 7b3f
00000040: 9bd3 363f b54e 523f 9902 943f 6973 813f
00000050: 211e 8b3f d73b 833f 39ce 6f3f d252 9c3f
00000060: 6846 8b3f 590a 8d3f bea7 893f 5699 963f
00000070: 7781 833f 68d5 7b3f 9804 7f3f 1179 693f
1.1078936 0.7744017 1.182925 1.1049544 1.1441661 0.8983483 0.9905072 1.0276512
1.1593372 1.1706495 1.2794968 0.97002935 0.8804396 1.1686316 1.1273019 0.9841473
0.71416634 0.8215135 1.1563293 1.0113345 1.086857 1.0252637 0.93674046 1.2212775
1.0880861 1.1018783 1.0754316 1.1765544 1.0273885 0.9837251 0.99616385 0.9120036

bn1.bias f4 [32]
00000000: 0f45 763d 49a5 8e3d e594 893d 58cd 893e
00000010: e0ba a13d 636b 583e d3f1 4abe 7881 8abe
00000020: a9ea 4f3e 83bd a83e e34a 233e 1d32 c83e
00000030: c383 a7be 9f66 a03e 9f23 d93e 98ad 9cbe
00000040: f213 063e 1981 133e e077 4d3e 798e 9fbe
00000050: 7468 953e 7b72 873e 1287 85be 9c4c 80be
00000060: 7d31 b33e 445c 9b3e bb8e c5bd 6a0a 733e
00000070: 48ae a03e 16b7 863d c5f5 09be 655c 903e
0.060124453 0.069651194 0.067178525 0.26914477 0.07896972 0.21134715 -0.19818811 -0.27051902
0.2030436 0.32957086 0.15946536 0.39100733 -0.32717714 0.31328294 0.4240999 -0.30601192
0.13093546 0.14404716 0.2006526 -0.31163386 0.29181254 0.2645453 -0.26079613 -0.25058448
0.34998694 0.3034383 -0.09646364 0.23734441 0.31382966 0.065778896 -0.1347266 0.2819549

bn1.running_mean f4 [32]
00000000: 6b32 883e 6390 223f 69c7 2a3f 038c 9c3e
00000010: d2b8 953e 3b66 f93d 6a42 db3d 2423 da3e
00000020: 7d54 833e 9344 5d3e 78d4 263e e34d 583e
00000030: b74f 023f dbee d23d 1c9a 1b3e 16dd 4f3e
00000040: ce3a 2a3f 9876 163e d9bc 883e 636f bc3e
00000050: 239e 943d 7509 383e 2de0 233f c695 e53e
00000060: 46b5 a63e 52aa 4d3e bc06 b03e 4629 143e
00000070: e123 103e ee4d a53e 4c2b 073f e3ef 523e
0.26600966 0.63501567 0.66710526 0.3057557 0.2924257 0.12177702 0.10706027 0.42604935
0.25650397 0.2160819 0.16291988 0.21123461 0.50902885 0.10299464 0.15195507 0.20299181
0.6649598 0.14693677 0.2670658 0.3680373 0.07256725 0.17972358 0.6401394 0.4484083
0.32560176 0.20084503 0.34380138 0.1446887 0.14076187 0.32286018 0.5280044 0.20599322

bn1.running_var f4 [32]
00000000: 164a 353e 8eb7 d33e 5a8a 0b3f ee52 803e
00000010: 414e 343e 5292 6e3d df5f b23d 58ac 9d3e
00000020: 7742 3b3e 40ec 1e3e 6933 cb3d 4802 153e
00000030: b875 003f 6827 633d 5dc8 ce3d 661c 2f3e
00000040: 535a f73e ac98 973d a512 143e 3758 9f3e
00000050: 2d5a 093d b286 c33d 5706 f43e b4fa af3e
00000060: 11be 5d3e cff5 cc3d f209 4b3e 91c3 953d
00000070: 6d90 973d 0b88 823e 2042 db3e 8548 ee3d
0.17704043 0.4135098 0.5450798 0.2506327 0.17607976 0.05824501 0.08709692 0.3079555
0.18287073 0.1551981 0.09921915 0.14551651 0.50179625 0.055457503 0.1009681 0.17100677
0.483111 0.07402167 0.14460237 0.3112199 0.033533264 0.095471755 0.47661087 0.3437096
0.21654536 0.10007822 0.19828013 0.07312692 0.07400594 0.25494418 0.42823887 0.11634926

bn2.weight f4 [32]
00000000: d8cf 2f3f 5200 f13e 27e2 1b3f f367 d03e
00000010: 6dde 5f3f cdc7 033f f069 cb3e 42c4 213f
00000020: 7fac ef3e 2120 f13e a006 203f 991a 4c3f
00000030: 3361 363f 5e47 083f a419 433f 121d e03e
00000040: 11cd 763f 41a9 573f a257 583f 4059 2f3f
00000050: 5b85 003f d45e ab3e df57 0b3f a697 273f
00000060: d5e4 0e3f 2d6c 4f3f d52c a83e f7a6 2b3f
00000070: 07cb 123f a0d4 523f 2165 2c3f 0889 1a3f
0.6867652 0.47070557 0.60891956 0.40704307 0.8744877 0.51476747 0.3972926 0.6319009
0.46811292 0.47094825 0.6251011 0.79728085 0.71242064 0.532339 0.76211 0.4377218
0.96406657 0.84242636 0.8450872 0.6849556 0.50203484 0.33470786 0.54430956 0.6546577
0.5581792 0.8102444 0.32846704 0.67051643 0.57341045 0.8235569 0.6734181 0.60365343

bn2.bias f4 [32]
00000000: 745b 33be 74c9 9f3d 1799 243e 6f24 823d
00000010: 0ecb 8c3e 3fa7 b43d 7dcc 84be d38b c93e
00000020: 0163 bfbd 7705 b5bd b76e 22be 2b94 fe3d
00000030: c057 143e 1c21 a1bd 88f9 713d aca4 25bb
00000040: 4036 383e fc6b 043e 3a5c b43e 5c85 c73d
00000050: 6a1f d23d 95cd 563d b08f 74bd a57c 10be
00000060: ce6e e8bd ca2a 733e a04d 09bd 4753 d03d
00000070: 3e61 00be c667 4b3e c2eb 42be e700 47be
-0.17515355 0.07802096 0.16074024 0.063546054 0.27498668 0.08820962 -0.25937262 0.3936449
-0.09345055 -0.08838933 -0.15862547 0.124306045 0.14486599 -0.07867643 0.059075862 -0.0025275154
0.17989445 0.12931818 0.35226613 0.09742233 0.10259898 0.052442152 -0.059707344 -0.14110048
-0.11349259 0.23746791 -0.033521295 0.10172134 -0.12537095 0.19863805 -0.19035247 -0.19433938

bn2.running_mean f4 [32]
00000000: ac5c c43e 9c00 283f 564d 903f efe9 873f
00000010: 6216 b13f 2743 bf3f 495b 6b3f c3f5 ae3f
00000020: 9377 ed3e 0f09 1a3f b203 7d3f f8c8 163f
00000030: 4468 843f 95fc 483f 8151 653f ea05 c13f
00000040: f727 ae3f 281d d03f f254 0b40 d948 4e3f
00000050: 0118 953f 6a0c 5a3f 5249 473f 840f 553f
00000060: 9816 e43e 38bb c13f 1692 5f3f 3a18 9e3f
00000070: e2bd ad3e ed11 ab3f 2c0a 223f aa64 e53e
0.38351953 0.6562593 1.1273601 1.0618266 1.3834956 1.4942368 0.91936165 1.366875
0.4638029 0.6017007 0.98833764 0.58900404 1.0344319 0.7851041 0.8957749 1.507993
1.3605946 1.6258898 2.1770597 0.80579907 1.164795 0.8517519 0.7784625 0.832268
0.44548488 1.513526 0.87332284 1.2351143 0.33933932 1.3364846 0.6329677 0.44803363

bn2.running_var f4 [32]
00000000: a42d 7e3f 2b8b cb3f fa30 a840 242b cf3f
00000010: f674 ca40 4fbd df40 d585 8040 dfa8 4d40
00000020: fa4e 3f3f 3eca c23f 0105 9c40 9665 1340
00000030: a87d 6140 1930 0840 b3d9 3340 dc9a b740
00000040: 2a6c c740 6422 de40 29ed 9a41 0dc7 f93f
00000050: ced3 b73f c14a 1440 f0d9 7e3f 8fa1 e53f
00000060: 78ff 463f f6fb ed40 9022 b33f 2ad0 8440
00000070: 987e 8f3f e759 0941 7536 893f 1769 8e3f
0.9928839 1.5901846 5.2559786 1.618504 6.3267775 6.991859 4.016337 3.213432
0.74729884 1.521797 4.875611 2.3030753 3.5232944 2.1279356 2.8101623 5.7376537
6.2319536 6.941698 19.3658 1.951387 1.4361513 2.3170626 0.99551296 1.7939929
0.77733564 7.437007 1.3994923 4.1504107 1.1210508 8.584449 1.0719744 1.1125821

rnn1.weight_ih_l0 f4 [128, 64]
00000000: 2c9b 153e a8c4 1f3e 8958 da3e 9239 82be
00000010: 175f 383d aace a4bd 2783 5ebe 1190 ea3e
00000020: 5d64 01be b361 49be 1709 0bbe 5167 3b3e
00000030: 468a 1bbe 76be 99bd b195 bbbd c989 44bc
00000040: 435d 86be 4282 713e d763 edbe 847d 463e
00000050: c8d9 0abe b98c cf3c fb80 6b3e 05c6 9ebe
00000060: c8e1 b3bd 5522 a9bd 087f 163e bbdc 7fbe
00000070: 041a 0fbc ae98 c53d 69e9 ebbe 660a 413d
00000080: e85c 0b3e 0e3f c03d 0f67 efbd 753b 433e
00000090: 7f0f af3c e1e4 ee3d 497b c03d a344 4fbe
000000a0: 3898 98be c37c 76be fe08 27bc 9214 02bf
000000b0: 1a2c b4be d892 e83d 63c6 b3bd e67c 06bd
000000c0: 9cc7 87bd eada 45be 7077 263e 9b92 773d
000000d0: 369b aa3d 60e8 21be 9886 7d3e 92f0 843e
000000e0: ce91 8ebd b797 9e3d ced0 8e3d 68ed 22bc
000000f0: cb56 24be 87b5 9cbe 4448 a23e 0c62 383e
00000100: d9f7 bbbe 78e7 9d3e 10a8 2d3e 9316 d2be
00000110: 4a57 91be dac0 27bf 66cc 403e 86d0 81be
00000120: 4ab7 96be 72cb 5cbe 0062 3fbe 7ddf d3be
00000130: eb09 2e3f e25b 06bf 8d30 a2be 3f77 ea3e
00000140: 59c4 3f3d 1e8f 88bd edf4 6a3d 16b3 04bd
00000150: 4006 a8be 23f9 0cbe 7efa 4f3d c080 c7bc
00000160: cbd7 7abe 4343 22be d928 85bd 33d3 4fbc
00000170: a5fe 1abe 2ec8 29be bb99 863e ef1f 3f3d
00000180: 402d d2bd 99a9 99bd 0cb1 1cbe 8d7c 9b3e
00000190: 1f89 aabe dc11 26be 1ad7 11bd b1c6 c0be
000001a0: d987 423f f2fe e23d 6162 60bd e1a3 113f
000001b0: 181e e9bd b7f0 20be 46b6 8cbd d2e1 1c3d
000001c0: 78ab 9cbe 891e bfbd 78af 92be 2a16 0ebd
000001d0: 44d6 d7bc 5a54 15be 97df 9d3e 23c7 583d
000001e0: 8c31 373e dc15 43be 764c 543e fc31 e1bc
000001f0: 5f57 5d3d 2326 7fbd 7236 6abd bf9a 4fbd
00000200: 9331 153d b33f a83e 3bb6 993e 753a f33d
00000210: ed9f d53e 9167 b73d 1bb9 a73e bc5d 07bf
00000220: 1182 973e 2c91 1ebe 0480 793e 2a39 86bd
00000230: 0e9f 273e fbb1 543e 69a5 30be e04f af3e
00000240: d94b c43c 16a5 153f 838a 613e 6b97 5abe
00000250: 55f7 0f3f 5481 0b3d 60a4 1a3f 7f74 d7be
00000260: 20f1 693d a74a c03e 06de e53e e109 ee3e
00000270: 93cf e93e 1995 583e 4e6c 843e 5bc9 283e
00000280: e006 29be e115 fa3e 5281 073e 3c48 8c3d
00000290: 5a00 793d ae33 b3bc 1279 e83d 7bd4 d4be
000002a0: 7dbb da3e 71c5 5d3e 7a61 193f 18fa 023d
000002b0: 3e24 ab3e f8c3 8e3e 1fe2 e23e 4555 2f3c
000002c0: 6b56 043f 39de 463f 84a0 bd3e 4c1b ba3e
000002d0: dbc7 bd3e 9f77 59be 3fe3 5b3e 2573 e53d
000002e0: 1476 863d b6ad b73e 2934 03bd 8000 253f
000002f0: 7fe6 a43e b4a3 f73e cef5 8e3d 9733 843e
00000300: f165 393e 1473 a03d 8607 2b3f 20ab 7cbe
00000310: 9376 6d3e d0d8 9a3c 0e25 d73e fd9f 2f3f
00000320: 5421 053e 0530 1b3d 4072 89be f407 72be
00000330: ca7e 383d e468 8dbe 5e4a c1be 91f4 323e
00000340: 6442 34be 593b 603c 6bf5 2abe 52dc 0f3f
00000350: 3f3b 0abf 168a a8be 1ccd b43e 5f5c 443e
00000360: 9904 cfbe f0c4 243e 50ce 3bbe 3df3 b2be
00000370: dc93 a9be b8bb dcbe 9bcb df3e 313c 03bf
00000380: 890e 043d 631d 833e 25f6 fabd 46ea d63d
00000390: 8bed cabd c855 ef3c d65c 743e 5894 bebd
000003a0: 5a64 54bd c9f3 89be 2cc0 4a3e 0aab a63d
000003b0: ad65 463e 08b8 703e f7b3 183f 6647 d9bc
000003c0: 88c4 6abd 9481 7b3e 61da ec3d 5bb7 1abe
000003d0: 4458 98bd cc9a 08bd 445a 72bd 0a75 d33d
000003e0: 1c26 f93e aed8 23be 281b 2e3e fead d33d
000003f0: 78eb a1bd 4f7c 963d f539 223e e191 8a3d
0.14609975 0.15602362 0.42645672 -0.25434548 0.04501256 -0.080472305 -0.21729718 0.4581304
-0.12635942 -0.19666176 -0.13577686 0.18301131 -0.15189466 -0.07507031 -0.09159411 -0.011995741
-0.26243028 0.23584846 -0.46365234 0.19383818 -0.1355964 0.025335656 0.22998421 -0.31010452
-0.08783299 -0.082585014 0.14696896 -0.24986546 -0.00873423 0.09648262 -0.46076515 0.047129057
0.1360966 0.09387027 -0.11689579 0.1906565 0.021369694 0.11664749 0.09398515 -0.20241027
-0.29803634 -0.2407103 -0.010195015 -0.5081264 -0.35189897 0.11356133 -0.08778074 -0.032833956
-0.06629869 -0.1932179 0.162565 0.06044255 0.083303854 -0.158113 0.24758375 0.2596479
-0.06961404 0.07743781 0.0697342 -0.009944297 -0.16048734 -0.30607244 0.3169576 0.18006152
-0.3671253 0.3084066 0.16958642 -0.41032848 -0.2838691 -0.65528643 0.18827972 -0.25354403
-0.29436713 -0.21561983 -0.18689728 -0.41381446 0.67983884 -0.5248395 -0.31677666 0.45794103
0.04681811 -0.066679224 0.057362486 -0.032397352 -0.32817268 -0.13766913 0.050775997 -0.024353385
-0.24496381 -0.15845971 -0.06501932 -0.012684631 -0.15136202 -0.16580269 0.26289162 0.046661314
-0.10262537 -0.07503051 -0.15301913 0.30368462 -0.3330774 -0.1621775 -0.035605527 -0.3765159
0.7598854 0.11083783 -0.05478132 0.56890684 -0.11382693 -0.15716825 -0.068707034 0.038301297
-0.3059957 -0.09331996 -0.28649497 -0.034689106 -0.026347287 -0.14582959 0.30834648 0.052924287
0.17889994 -0.19051307 0.20732293 -0.027489655 0.0540384 -0.06229223 -0.05718083 -0.050684687
0.03642423 0.328611 0.30021843 0.11876384 0.41723576 0.089553006 0.32758412 -0.528774
0.2959142 -0.15485066 0.2436524 -0.06553872 0.16369268 0.20771019 -0.17250599 0.34240627
0.023961948 0.58455026 0.22025494 -0.21346824 0.56236774 0.034058884 0.60407066 -0.42081067
0.05711472 0.37556955 0.44895953 0.46491912 0.4566618 0.21150626 0.2586388 0.16483061
-0.16506529 0.48844817 0.13232926 0.06849715 0.06079135 -0.021875229 0.11351217 -0.4156836
0.42721167 0.21657349 0.5991436 0.03197679 0.33426088 0.27883887 0.44313142 0.010701482
0.51694363 0.77682835 0.37036526 0.3634895 0.3706654 -0.21237038 0.21473406 0.11203603
0.0656549 0.35874718 -0.032032166 0.6445389 0.32207105 0.48367083 0.06980477 0.2582061
0.18105294 0.078344494 0.66808355 -0.24674654 0.23189764 0.018902212 0.42020458 0.686035
0.13000995 0.037887592 -0.26844978 -0.23635846 0.04504279 -0.27619088 -0.3775205 0.17476107
-0.17603451 0.013686025 -0.16695182 0.5619556 -0.5399665 -0.3291785 0.35312736 0.19175862
-0.40433195 0.1609075 -0.1834042 -0.349512 -0.3312062 -0.43111968 0.43710026 -0.5126372
0.032240424 0.25608358 -0.122539796 0.10493903 -0.09908589 0.029215708 0.23863539 -0.09305638
-0.051853515 -0.26943806 0.1979987 0.08138092 0.19374724 0.23507702 0.59649605 -0.026523303
-0.057316333 0.24561149 0.1156509 -0.15109007 -0.0743871 -0.03335075 -0.059168115 0.10325058
0.48661888 -0.16000625 0.17002547 0.10335921 -0.0790624 0.07347929 0.15842421 0.067661054

rnn1.weight_hh_l0 f4 [128, 32]
00000000: b80f eb3c d1b0 1f3e 9017 ca3c 60d4 063c
00000010: 789f 52bd 1cb4 183d 313d 34be 209b 34be
00000020: 00dd a7bc 4c1b fbbd ee6f fbbd 70ce f5bc
00000030: 4edd c83d f22d b33d 0092 7bbd b0ac 4cbc
00000040: 010c 283e 08a2 1c3d 3233 f63d 4df5 95bd
00000050: 99fd 21be 11db a7bd a087 7e3c f05e 2fbd
00000060: eead c5bd 1513 2e3e 3516 27be 0013 933b
00000070: 7047 903d 5c58 43bd 3605 9d3d 007f 243a
00000080: 0b35 d7bd 21dc c4bd 42dd a2bd 89be 30be
00000090: eea4 e13d 35ee 253e 24fa b9bd 3028 0f3c
000000a0: 18f4 713d 3004 4d3d 06f3 c8bd 6a00 dcbd
000000b0: 9336 303e bad2 d23d 2738 293e b225 fe3d
000000c0: 507f 57bc 5ae0 fe3d 20cb b9bb 00c2 8fba
000000d0: a2dd 9cbd 432b 0d3e 64f0 19bd 8841 d23c
000000e0: 3058 10be 8462 783d dc22 acbd 0c81 23bd
000000f0: 287f 81bc 0437 863d a074 ec3b d054 fc3c
00000100: 0026 ebbd dcc6 08be 0662 823d 8814 95bd
00000110: 8a11 1cbe e769 95bd 9a96 31be 78ac 103d
00000120: 8019 573c 5f29 273e dba3 c7bd c23c bbbd
00000130: b4e4 2c3d a042 3ebd d711 0d3e 104d dc3c
00000140: 00bb 7bbb 81e5 8abd 3abf da3d 3478 a9bd
00000150: e494 913d 8e93 e83d 37fe 0dbe af63 20be
00000160: 602b ccbd ceb7 ad3d b4b2 c7bd 00e4 883c
00000170: 10a7 da3c c003 183d 6a9d b8bd e08a ca3b
00000180: 12df fa3d 1eab bb3d 2453 0a3d d0f5 0fbe
00000190: 5e54 aa3d 2429 90bd a65f fd3d d65c 963d
000001a0: a0e8 04bd 20f4 8b3d 868c 96bd b8f5 f93c
000001b0: 4084 10bc 00d7 373b 90f4 7e3d 3d4a 303e
000001c0: 11cd 9fbd e5c4 303e f8df 04bd 4b2b 2c3e
000001d0: 0cf1 223d 6030 6c3c 3428 72bd 50c7 bebd
000001e0: 5704 32be 4c9e c5bd 88a8 81bc b349 183e
000001f0: 86ea c33d 407e fc3c 6431 2fbe 5a0f ff3d
00000200: 2641 f93d cdbf a2bd 32a2 923d d9d2 16be
00000210: 070b b7bd c082 5abd b622 24be b0ef 30bc
00000220: f446 143d fcc2 523d 4567 293e 2a16 d13d
00000230: fc9f 25be 3847 63bd 56d4 ca3d 5dbe 2dbe
00000240: 401f 33bc 62fe 883d 2ac2 f2bd 7947 1b3e
00000250: ccae eebd 62ca 04be 0f69 09be 70aa fdbc
00000260: 3ccc 713d 0892 503d 50e2 b2bd 2d53 1e3e
00000270: ca03 c2bd 9909 0e3e 2838 733d 12a3 69bd
00000280: 37e1 053e 2816 703d b1ea 19be 5200 b83d
00000290: 7f32 2b3e 5e68 07be 18a7 18bd cd12 12be
000002a0: beb9 f23d f214 c03d a907 043e 3c5e 4b3d
000002b0: e8cb eebc 804d 8dbc bbdf 06be 86c1 e53d
000002c0: e13e 91bd 88ee 9e3c c000 c53b e8e3 5a3d
000002d0: 216a 11be 7060 e5bc 1206 a73d 6bcd 05be
000002e0: eb86 9bbd 975a c7bd a229 19be f7bc 303e
000002f0: e365 1c3e e6dd e23d 980b 16be 0078 d3ba
00000300: 74f7 043d 1298 a03d b4d6 113d f2e8 ddbd
00000310: 60aa b73b 6961 12be b28e b53d 720b e43d
00000320: be8a 81bd 6273 1ebe 006e d73a be15 b93d
00000330: 6806 f7bd b2d8 983d be24 fc3d 1c0f 16be
00000340: f237 c83d 32bb a33d 1950 babd 51ed 173e
00000350: 231b aebd c195 093e 07c1 0abe 23c8 0e3e
00000360: e0cd 22bd 43e7 1fbe cad7 c03d f03a 6dbc
00000370: 1083 4c3d bac7 a63d 509f 9a3c 3044 673d
00000380: 1a93 18be d1c5 1fbe 8502 aabd 3849 bdbd
00000390: 48a0 2abe 681b e23c d0cb 65bc f076 1fbd
000003a0: 9096 06bc d2f9 ad3d c657 86bd c0f9 363c
000003b0: 205b 81bc 86d3 ae3d 680f 9abc fc0c 823d
000003c0: 9cc0 8dbd ad39 0c3e 30be f33c 489e f33c
000003d0: 3248 af3d 8772 34be f6f9 9f3d 656c 113e
000003e0: d6d2 d83d 0218 eb3d d467 11be 17ae 1c3e
000003f0: c0e3 213d ad70 30be 3bcd 233e df27 0d3e
0.028694019 0.15594794 0.024669439 0.008229345 -0.051421613 0.03728114 -0.17601468 -0.176373
-0.020491123 -0.12261066 -0.12277208 -0.030005664 0.098078355 0.08748998 -0.061418533 -0.012492344
0.16410829 0.038240463 0.120214835 -0.07322178 -0.15819396 -0.081960805 0.015535265 -0.04281515
-0.09652315 0.16999467 -0.16317065 0.004488349 0.070448756 -0.047691688 0.076670095 0.0006275028
-0.10508164 -0.09612299 -0.07952358 -0.17260183 0.11017786 0.1620415 -0.09080914 0.008737609
0.059070677 0.05005282 -0.09811978 -0.107422665 0.17208318 0.10294099 0.16525327 0.124095336
-0.013152912 0.124451354 -0.0056699663 -0.0010967851 -0.076594606 0.13786034 -0.03758277 0.025666013
-0.14096141 0.060640827 -0.084050864 -0.03991799 -0.015807703 0.06553462 0.007216051 0.03080216
-0.11481857 -0.13357109 0.06366353 -0.07279307 -0.15241066 -0.0729559 -0.17342606 0.03532073
0.013128638 0.16324376 -0.0974805 -0.09142448 0.042210296 -0.046450257 0.13776337 0.026892215
-0.0038411021 -0.06782056 0.10681005 -0.0827488 0.07108477 0.11356269 -0.13866507 -0.15663026
-0.099692106 0.084823236 -0.09750882 0.016710281 0.02669099 0.03711295 -0.09014399 0.006181106
0.122495785 0.091634974 0.033770695 -0.14058614 0.08316873 -0.07039097 0.12371759 0.07341926
-0.03244841 0.068336725 -0.073510215 0.030512676 -0.008820593 0.0028051734 0.06224495 0.1721582
-0.07802785 0.1726261 -0.032440156 0.1681339 0.03978066 0.01441583 -0.059120372 -0.093153596
-0.17384468 -0.09649333 -0.015827432 0.14871864 0.09566216 0.03082192 -0.17108685 0.124541
0.12170629 -0.07946739 0.071598426 -0.1472887 -0.0893765 -0.05334735 -0.16028866 -0.010799333
0.03620048 0.051455483 0.165433 0.102093056 -0.1617431 -0.05548784 0.09903781 -0.16967149
-0.010932744 0.06689145 -0.1185344 0.15163983 -0.116544336 -0.12967828 -0.13418983 -0.03096506
0.059032664 0.050920516 -0.08734572 0.15461417 -0.09473379 0.13870849 0.059379727 -0.05704028
0.13074194 0.05861488 -0.15030934 0.08984436 0.16718481 -0.13223407 -0.037268728 -0.14264984
0.11851834 0.09378995 0.12893547 0.049650416 -0.029149964 -0.017248869 -0.13171284 0.11218552
-0.07092071 0.01940085 0.0060120523 0.053440005 -0.14200641 -0.028000087 0.08155455 -0.13066642
-0.07594093 -0.097340755 -0.14957288 0.17259584 0.15273242 0.1107748 -0.1465286 -0.0016133785
0.032462552 0.07841505 0.035605147 -0.108354464 0.005605027 -0.14294972 0.088651076 0.111349955
-0.06325291 -0.15473703 0.0016435981 0.0903735 -0.12061769 0.07463206 0.123116955 -0.14654201
0.09776296 0.07994689 -0.09097309 0.14836623 -0.0850127 0.13436033 -0.13550197 0.13943534
-0.03974712 -0.15615563 0.094161585 -0.014479384 0.04992968 0.081435636 0.018874794 0.056461513
-0.14899865 -0.15602805 -0.08301262 -0.09242481 -0.16662705 0.027600959 -0.0140256435 -0.038931787
-0.008214608 0.08494915 -0.0655971 0.0111679435 -0.015790522 0.08536439 -0.018806174 0.06350133
-0.06921503 0.13693877 0.029753774 0.02973856 0.08558692 -0.17621814 0.07811348 0.14201505
0.10587089 0.114791885 -0.14199764 0.15300785 0.03952384 -0.17230482 0.15996258 0.13784741

rnn1.bias_ih_l0 f4 [128]
00000000: 1049 08bf b432 8dbe 6f09 1dbf d2a7 88be
00000010: 55e8 c1be b9e5 89bd 44a3 e5be 777f 09bf
00000020: 0120 4cbe 206a 2bbf 2d0e bcbe 1f68 08bf
00000030: f5ff dfbe 4982 02bf 3f0f 81be c0c3 8ebd
00000040: 30e7 f6be ba55 9abe 085f bdbe 86e3 afbe
00000050: 518d eabe 4ce5 e2be 0d49 f6be 6b60 8ebe
00000060: 8a71 c5be b6b6 a5be f1e3 a8be a75b 4bbf
00000070: f0e6 f8be eb4e 21bf fd41 05bf 9b65 3dbd
00000080: 601a 5b3d 4010 aebb b0b9 bebd acb0 2cbd
00000090: 54cb 50bd 0d93 193e 301f 20be 201a 503d
000000a0: e50b 243e 4058 603d bd23 c0bd d4f7 543d
000000b0: e258 913d 02e2 9b3d 10f0 6f3c 188f 1ebe
000000c0: c820 223d c018 18bd 56a6 c03d 6524 223e
000000d0: 7391 81bd c0f6 443b a767 143e 30ff f7bc
000000e0: b810 db3c ba6f 8cbd b06c 353d b568 95bd
000000f0: 49ca 1ebe 8bb0 1ebe 8602 9f3d 307b d9bc
00000100: 8ec5 a03d e21d 7a3d f408 b43d 6ca9 583e
00000110: e1af 8c3d c754 6bbe 7908 423e ab3d a3bc
00000120: ec96 ac3e 69a6 eebd 3190 86be 662a 953c
00000130: abfe cf3d 80ad 2abe b600 30be 9fb0 1f3e
00000140: 6c70 823e 7be2 9e3d 217a afbd 48f6 91bd
00000150: 3243 30be 2017 b93d 6b2d 07be 9ed7 9e3c
00000160: 1a67 ac3d c2e7 943e c3eb 9ebd 3450 51be
00000170: a8bb 0ebc 76f6 95be f512 e7bd ae3d 4c3e
00000180: 7dae 85be eb29 36bf 0193 06bf 696f 06bf
00000190: 25c5 35be 26da 2fbd e495 0cbf 8bc6 41be
000001a0: 7c45 6dbe e04e e4be cffc c1be 7adf b1be
000001b0: 97b5 d9be 11cf 34bf d2bc 92be 1ab8 a5be
000001c0: bb1f 82be 6884 fcbd 4d55 aebe f597 c2be
000001d0: 608e 04bf a48a 88be 05e0 0dbf d34d 97be
000001e0: 3a78 2dbf fe6d a7bd 6b1f 7abe fd75 41bf
000001f0: 65e8 d8be 69ab dbbe 240a 21bf 8c80 83be
-0.53236485 -0.27577746 -0.6134252 -0.26690537 -0.37872568 -0.06733269 -0.44851124 -0.5371012
-0.19934084 -0.6695881 -0.36729565 -0.53283876 -0.43749967 -0.5098005 -0.25206944 -0.0697093
-0.48223257 -0.3014353 -0.36986566 -0.34353274 -0.4581094 -0.44315565 -0.48102608 -0.27807936
-0.38563186 -0.3236596 -0.32986405 -0.79436725 -0.4861369 -0.63011044 -0.52053815 -0.046239477
0.05349195 -0.0053119957 -0.09312761 -0.042160675 -0.05097516 0.14997502 -0.15636897 0.050806165
0.16020162 0.05477166 -0.093818165 0.05199416 0.07097031 0.07611467 0.014644638 -0.15484273
0.039582044 -0.03713298 0.09406726 0.15834196 -0.0632657 0.00300543 0.14492665 -0.03027305
0.02674137 -0.06857248 0.044293106 -0.07295362 -0.15506853 -0.15497033 0.07764153 -0.026547998
0.078501806 0.061063655 0.0879077 0.2115838 0.06869484 -0.22981559 0.18948545 -0.019926867
0.33708894 -0.11652834 -0.26281884 0.018208694 0.10155996 -0.16667747 -0.17187771 0.1559472
0.25476396 0.077580415 -0.08568216 -0.071270525 -0.17213133 0.09037614 -0.1320092 0.019389924
0.084181026 0.29083067 -0.07759812 -0.20440751 -0.008711733 -0.29289597 -0.11282913 0.19945404
-0.26109686 -0.7115771 -0.5256806 -0.5251375 -0.17750986 -0.042932652 -0.54916215 -0.18923394
-0.23171037 -0.44591427 -0.3788819 -0.34740812 -0.42521355 -0.7062846 -0.28659683 -0.3236702
-0.25414833 -0.12329942 -0.34049454 -0.3800656 -0.51779747 -0.26668274 -0.5541995 -0.29551563
-0.67761576 -0.08175276 -0.24426048 -0.7557066 -0.42364803 -0.42904213 -0.629061 -0.2568401

rnn1.bias_hh_l0 f4 [128]
00000000: 0b40 d9be 5125 02bf e9e7 d0be f8d9 8bbe
00000010: 771d 97be 83df e3bd dfd6 95be 2001 cbbe
00000020: 24b2 e1be 7e16 11bf df98 7abe 3b67 2dbf
00000030: 10ee c0be 3283 edbe 2ac1 02bf fb6f 64be
00000040: a0a5 ecbe d400 1cbe c1da dcbe ab41 d6bd
00000050: 7e6c 1abf 49c6 d2be 794b 1cbf bf44 09be
00000060: 05f2 bebe baf6 6dbe 97f1 adbe 54e2 2ebf
00000070: e7b3 2ebf 98a5 c1be 73bd 28bf 2f8c d53d
00000080: 18c8 833c e0c0 693d 8c69 a4bd 90d7 85bc
00000090: 04ad bcbd 7515 1a3e 86c5 8e3d b656 bfbd
000000a0: cdc9 87bd ce95 ac3d 5cf5 dcbd 1062 0f3d
000000b0: 5f77 b2bd 9819 b2bc eef0 f83d 7014 d8bc
000000c0: faf8 c83d dedb eebd 25ce 0d3e 50bd 2abe
000000d0: f56b 2cbe 5663 32be 7a8e 1cbe 7048 7ebc
000000e0: d0da 2cbe c041 233d 51ae bdbd 20c8 e83c
000000f0: 1016 46bc 9479 863d 60de bfbc 5dde 10be
00000100: c771 8e3d 5fd8 84bc f0d9 3d3d 5f13 8f3c
00000110: 4b34 5bbb da7a 6abd 3346 b13d df93 b53d
00000120: 74b2 be3e 2473 80be d9d5 e93c 3e13 6fbd
00000130: 4fc5 953d 1821 55be 1f01 52be d42f ac3d
00000140: 94f3 c33e e385 6dbc 99d3 3dbb 07c0 6a3d
00000150: cabe 433b ee7e 97bb 19e4 1fbe 64ac 913e
00000160: 7f74 363e 2804 4b3d 4d6b 80be fe2f 12be
00000170: 5c78 b8bd 3567 98be eb8b 5cbe 0018 1bbc
00000180: c5e7 71be ad0b 38bf 2b1c a3be 31d6 b0be
00000190: e42d 9cbe edd1 fabd 9942 bdbe 4516 c1bd
000001a0: 4e61 fcbe 1ec6 d3be 11e3 71be cccd 81be
000001b0: cd3e bdbe e480 c0be c384 a9be 85a2 71be
000001c0: f599 92be b8b2 cbbe 14c3 11be 0287 ebbe
000001d0: 7ccc febe 7ee2 04bf 8b86 aebe c1dd cebe
000001e0: d577 28bf 11c2 50be 41db dcbe 7087 2abf
000001f0: 1bed 27bf aef2 8bbe ac42 dcbe ac9b 8dbe
-0.42431673 -0.5083819 -0.40801933 -0.27314734 -0.29514667 -0.11126616 -0.29265496 -0.39649296
-0.44081223 -0.56674945 -0.24472378 -0.6773564 -0.37681627 -0.46389157 -0.51075995 -0.22308342
-0.46220112 -0.15234691 -0.43135646 -0.10461744 -0.60321796 -0.41166905 -0.6105266 -0.13405131
-0.3729402 -0.2323865 -0.3397338 -0.683141 -0.6824326 -0.3782165 -0.65914077 0.104271285
0.016086623 0.057068706 -0.08027944 -0.01633814 -0.092126876 0.15047248 0.06971268 -0.09342711
-0.06630287 0.084270105 -0.10788986 0.03500563 -0.087141745 -0.02174072 0.12155329 -0.026376933
0.098131135 -0.1166303 0.13848169 -0.1667378 -0.16838057 -0.17420706 -0.15288725 -0.0155202
-0.16880345 0.039857626 -0.09261764 0.02841574 -0.012090221 0.06566158 -0.023421466 -0.14147325
0.06955295 -0.016216455 0.04635042 0.017465292 -0.0033447917 -0.057246067 0.086559676 0.08866095
0.37245524 -0.25087845 0.028544353 -0.05836796 0.07313024 -0.20813406 -0.2050824 0.0840756
0.38271773 -0.014497253 -0.0028965233 0.057312038 0.0029868358 -0.0046232855 -0.15614356 0.28451836
0.17817877 0.04956451 -0.25081864 -0.1427612 -0.09007332 -0.2976624 -0.2153775 -0.009466171
-0.2362357 -0.71892816 -0.31857428 -0.34538415 -0.30503762 -0.122470714 -0.36964872 -0.09428076
-0.49292988 -0.4136209 -0.23621775 -0.25352323 -0.36961976 -0.37598336 -0.33109102 -0.23597153
-0.28633085 -0.3978479 -0.14234573 -0.4600144 -0.49765384 -0.519081 -0.34087023 -0.4040356
-0.6580785 -0.2038653 -0.43136027 -0.6661291 -0.6559617 -0.27333587 -0.43019617 -0.2765783

rnn2.weight_ih_l0 f4 [128, 32]
00000000: c0bd babd e571 a1be cae7 3a3f b7bf ad3d
00000010: d9fd 2bbe 306c 203c 7d3d 083d 63b1 943e
00000020: a5a1 e2bd 127c b1bd 15f9 c0be fdd0 553f
00000030: dd60 9fbd c7df 3d3e fbe4 cdbd 24ac 8fbe
00000040: 7875 dcbc 85f9 0c3e 04bf 113c 8c1d 0dbd
00000050: 51dd f8be 88c1 043e de68 fcbd 6201 e0bb
00000060: e3b5 57be 8124 75be 2fcc 08be b890 04be
00000070: 16cd a6be a770 a7be 291f e2bd f00e afbe
00000080: 5890 34be e421 13bc e89e cc3e 2666 b6bd
00000090: f5e3 c93e afe4 433e af1c 1e3f 1747 c63c
000000a0: 9fa7 353e 1641 283e 2b91 64be 51fd 143e
000000b0: 6b27 68be 1d66 2b3a 1f39 12be fa76 0fbe
000000c0: 5366 6b3e e08f 8b3d 674c da3d cc09 dc3e
000000d0: dbea 40bd c00b 42bc c6e4 bf3d 8c6c 15be
000000e0: c254 863e fbc0 54be e399 f43d 7dbe 06be
000000f0: c5fe e7bd e4c4 f4bd 17a0 a43e 69de 413b
00000100: 993e 8d3e eede a9be d49e d23e 6bba 1bbc
00000110: 5ae6 333d 23ba 1c3e dd21 c5bd 1bbb 1a3c
00000120: 9893 b43d 41e6 5ebe accc 6b3d 46f6 b23e
00000130: 9d2f f0bd 4c39 a6bc 1b3f a1be 5de9 c9be
00000140: 24f6 2cbc e151 803e 7e04 b3be bbef 95bd
00000150: 2df4 7bbe 9ed5 a9bb 0480 f4bc e84d 4ebe
00000160: 21ce 6a39 716b 39be 191e 87be 2207 46be
00000170: d3fa c0be dc9c a2be 473e 8d3e 1f02 14be
00000180: e5d4 03be 78b7 84be 952a f43c 2df4 163d
00000190: 599b f7bd fd5e 51bd e78f 873d 5ef2 e7bd
000001a0: 4fb0 3d3e c010 8dbe 3a69 dfbc 2c2a 253e
000001b0: 7d78 f3bd eb7c 10bd de7a fb3d 04b8 07be
000001c0: daab fbbd 5612 f43c 2a3f 37be 7e39 18be
000001d0: ec8e 9ebd 0338 113e 3e08 eb3d 4841 2bbe
000001e0: 94cf 75bd 3eb3 38be b8e3 b13c f4c7 5ebe
000001f0: f048 453c 53cf 87be 08a8 403e 532f efbd
00000200: e347 9dbd 8d6f 3bbd 9425 823e 155b 06bd
00000210: 0a5b 643d 9501 19bd fb2e 82bc d502 973d
00000220: 1588 bebd b490 d3be b064 1bbd 33e8 653e
00000230: 3333 1abd ae3e 003c 00f7 f93c a3b6 f1ba
00000240: 0d58 21be 689f 1e3e e65c 72bd 8893 3ebd
00000250: fcb2 e93d b7e2 143d 6278 dd3d 76cf a2bd
00000260: 5a51 8d3d d55b 82bc 1ff7 2abe aed1 793c
00000270: b06d b9be 118f 6bbe 67e4 593e 873d b3ba
00000280: b755 35bc 60b8 c53d dd68 ac3e 418a 553d
00000290: 64c8 563e 3495 a33e c69a 9a3e 60b4 8cbd
000002a0: 4e19 033e 1604 9f39 f62d a93d 71ae 8f3e
000002b0: d7a2 fcbd ad75 f439 f298 3cbe 4ef3 1f3d
000002c0: 43b2 8bbc 6b6b 363d 5715 11be 0981 133e
000002d0: 88a0 7b3c c7b3 bebd 0958 6dbd d7ad 83be
000002e0: 6bbf 39be c967 4fbd 6789 c63c 1939 d23d
000002f0: 70d9 cebc 44d8 b43b 95a6 fd3d 6eae a9bb
00000300: 41cf 663e fb5c 96be c110 0a3f fc40 a63d
00000310: 15c1 253c 2f8d 50be 8412 093e cdc2 a43e
00000320: d2e5 443d 40dd 52be 62cf 51bd 227e f83e
00000330: 6faf 2e3d a836 9a3d d2cf 813d 3fa9 a0be
00000340: bcda afbc 1258 d93d 6e3d 7dbe 296b 843d
00000350: 03c0 7bbe 1219 85bd 19d5 133d 93de d53d
00000360: db78 ecbb aff3 5bbe 1230 cabe 83bb 9dbd
00000370: c756 14bf 20b4 12be 99e2 0a3e 46c8 00bf
00000380: 22d4 223e 05d7 f3bd e2df 2bbd 775f 353d
00000390: 57dc 9a3d 1f0e 333e a125 e33d 7c56 f53e
000003a0: 5d9c 003e 28d6 7abe c7bd b9bc acd8 2e3e
000003b0: 837f 1ebe 35ff 89bd a681 04be 9c42 72be
000003c0: 5dc9 b3be 3cda aa3d 9dc2 90be 23db 153e
000003d0: 63a5 1c3d 7da4 113e 7cea af3d 8201 b9be
000003e0: e727 893e 7fe3 c1bd 590a c13d 13bb 043e
000003f0: ffd2 bebd 5419 1fbe 465e 7ebd e492 ffbc
-0.09118223 -0.31532207 0.7300993 0.08483832 -0.16796054 0.009791419 0.033261765 0.29041585
-0.110659875 -0.08666243 -0.37690035 0.83522016 -0.07782147 0.18542396 -0.1005344 -0.2806102
-0.026911482 0.13767059 0.008895639 -0.034452006 -0.4860635 0.12964451 -0.12324689 -0.0068361023
-0.21065478 -0.23939706 -0.1335914 -0.12945831 -0.32578343 -0.32703134 -0.110410996 -0.34191084
-0.17633188 -0.008980248 0.39964986 -0.08906202 0.3943173 0.19130205 0.6176252 0.02420382
0.17739724 0.16431078 -0.22321002 0.14549758 -0.22671287 0.00065383484 -0.14279602 -0.1401023
0.22988252 0.06814551 0.10659104 0.42976224 -0.047098976 -0.011843622 0.09369807 -0.14592189
0.2623654 -0.20776741 0.11943414 -0.13158603 -0.1132789 -0.119516164 0.3215339 0.002958203
0.2758682 -0.33177894 0.411368 -0.009504895 0.043920852 0.1530538 -0.096255995 0.0094440235
0.08817214 -0.21767522 0.057568237 0.34953517 -0.117278315 -0.020290993 -0.31493458 -0.39435855
-0.010556731 0.2506247 -0.34964365 -0.073211156 -0.24604864 -0.005182936 -0.029846199 -0.20146906
0.00022392768 -0.18107392 -0.2639015 -0.19338658 -0.37691364 -0.317603 0.27586576 -0.14453934
-0.12874182 -0.25921226 0.029805461 0.036853958 -0.12090177 -0.05111598 0.06619244 -0.11325525
0.18524288 -0.27551842 -0.027271856 0.16129369 -0.11888216 -0.03527538 0.122792944 -0.1325379
-0.122886375 0.0297939 -0.17895189 -0.14865682 -0.07742104 0.14181523 0.114761814 -0.16724122
-0.060012415 -0.18037125 0.02171503 -0.21755964 0.012041315 -0.26525363 0.18814099 -0.11678948
-0.07679727 -0.04576068 0.25419295 -0.032801706 0.055750884 -0.037355024 -0.015891543 0.07373587
-0.09303299 -0.41321337 -0.03793782 0.22451858 -0.037646484 0.007827444 0.030513287 -0.0018441271
-0.15756245 0.15490496 -0.059170626 -0.046527416 0.11411092 0.036349025 0.10813977 -0.07949726
0.06900282 -0.01591293 -0.16695832 0.015247745 -0.36216497 -0.23003794 0.21278535 -0.0013674953
-0.011067799 0.09654307 0.33673754 0.052133802 0.2097488 0.3194977 0.30196208 -0.06870341
0.12802622 0.00030329888 0.082607195 0.28062776 -0.12335747 0.00046626982 -0.18417719 0.039050393
-0.017052775 0.044536036 -0.14168297 0.14404692 0.015358098 -0.093116336 -0.057945285 -0.25718567
-0.18139426 -0.050636087 0.02423544 0.10264797 -0.025250167 0.005518945 0.123852886 -0.0051782643
0.22539999 -0.29367813 0.53931814 0.081178635 0.010116835 -0.20366357 0.1338597 0.3217987
0.048070736 -0.20592213 -0.051223166 0.48533732 0.042647775 0.07529956 0.06338467 -0.31379125
-0.021466605 0.10612501 -0.24730465 0.06465752 -0.24584965 -0.064989224 0.036091898 0.10442843
-0.0072165555 -0.21479677 -0.394898 -0.07701781 -0.5794491 -0.14326525 0.13563003 -0.50305593
0.15901235 -0.11906246 -0.04196156 0.044280495 0.07561558 0.17485856 0.110911615 0.47917545
0.12559648 -0.24495757 -0.0226735 0.17074841 -0.1547833 -0.0673813 -0.12940082 -0.23658222
-0.35114565 0.08342406 -0.28273478 0.14634375 0.038243663 0.14222904 0.08589646 -0.36133963
0.26788256 -0.094672196 0.09425802 0.12961988 -0.09317588 -0.15537006 -0.062101625 -0.031197973
