engcovid/best_mpnn_model.pth (torch, 107226 bytes, 23 tensors)

conv1.bias f4 [32]
00000000: 19f1 3b3e 96dc 05be 76b3 dc3a fcc8 9cbd
00000010: 0c46 873d 73c2 dcbd 3c57 21bd caac 1e3e
00000020: 164e dcbd 3d54 0d3d 079e 8cbd 156d 6d3e
00000030: 783d 213e fdbb b6be c45b 4bbe abf6 05bf
00000040: 1aed f73d 0863 26bf a311 80be 2bd8 cfbe
00000050: ee6e 57bb ef50 7fbe d271 16bd a21e b5bd
00000060: 2331 30be dddd 32bd f43e d9be 2ec6 b6bd
00000070: 5b72 4abe ca30 f4be abca b8be 119f 0bbf
0.1835369 -0.13072428 0.0016838151 -0.07655522 0.06605157 -0.10779276 -0.039389834 0.15495601
-0.10757081 0.034504164 -0.06866079 0.23186143 0.15746105 -0.356903 -0.19859225 -0.5232951
0.121057704 -0.6499486 -0.25013456 -0.4059461 -0.0032872516 -0.24933217 -0.03672964 -0.08843733
-0.17206244 -0.043668617 -0.42430842 -0.089245185 -0.19770186 -0.47693473 -0.36092123 -0.5453959

conv1.lin.weight f4 [32, 8]
00000000: 3328 9e3e 238e 37bf 7cfb bf3e a2e9 9f3e
00000010: 9ed3 373d f8d5 f3be 50fe 703e fede 1abc
00000020: a7f6 463d 077e 1e3f a8f8 71be b7ef 12be
00000030: d771 4cbd cd43 99be 8505 3b3f a07e 61be
00000040: 6038 403e 9057 7a3e 52f4 363f 351f 253d
00000050: df55 cdbe 9fb1 123f aa46 3c3f cc00 3dbe
00000060: b9f8 963d f845 183e 5a86 a63d 2106 cdbe
00000070: 03f1 4ebf 6766 a3be d3c5 32bf d896 19ba
00000080: c314 f73e b435 b8be 5bdf d7bc 119e eebd
00000090: 1d18 83be 7cc4 2bbd eeb6 a5bd e53e 4fbf
000000a0: 2ba4 85be 2b25 083e 883c 1b3d e133 80be
000000b0: 97fe 73be bf34 cebe cb74 8fbe 30c2 f4be
000000c0: 2a55 90be f2e2 0fbe 4c1e bfbd cf01 a7bd
000000d0: d108 cdbe b614 7e3d 1950 1f3f 855e d83e
000000e0: f5bb 57bf 14d6 1bbe 7f87 273f 025e 8abd
000000f0: efa1 203b bae3 d93e 3c4b df3d e5c1 6f3c
00000100: b44c 52be 8ba8 5bbe bdde 6d3e bba5 1b3e
00000110: 9288 273e 4910 1fbf 193a 69bf f95e e5be
00000120: 00c7 edbe dd0c 40bd a88c 2dbe 0e13 16be
00000130: 3eff 49bf c1e8 81be 48b0 62be 93e4 48be
00000140: 1b06 05be 2b4a 573d 3674 9bbe 2974 1fbe
00000150: 1920 6dbe 1d17 64be 0fb3 14bd 2999 6bbf
00000160: 2bdc 5abf 50c4 f7bd fbbf 8c3e 01e0 13bf
00000170: 990c c6be 59f7 edbe c354 7b3d 07d8 313e
00000180: 746b a73e 265f 84bb 173b 03bf a2e2 6b3e
00000190: ed56 943d c999 923e 87dc d13d a7d0 703f
000001a0: 2f9a 27bf 7695 f9bd 4a5a 28bf 910f 12be
000001b0: 96dd 4a3d f290 a83d f879 983e 9ed0 c5be
000001c0: 8b7a a7be bd53 a1bd 0e11 7b3d 53c9 773d
000001d0: 282d 34bf 72f7 0cbe 9a0e 8ebe 9733 05bf
000001e0: 8d55 1ebe 2a85 aebe 07d6 fb3e 0da5 c6bd
000001f0: 1596 053f ad53 4bbe c4db 9a3e a7ef 313f
00000200: 06b9 9ebd 0d3f 3a3f f1d4 74be 5d92 d3be
00000210: e841 c83e 5c26 2ebe 6846 4cbd 2c4f 133c
00000220: adb9 283d d8a7 343d 32f5 6b3d ad1c 31be
00000230: 6381 babe cdd9 0abf f222 48be 39eb efbe
00000240: 1d4d d7be cf93 c63e fe16 d73e a6e5 e9bd
00000250: dfc8 e1be 92a8 84be fa76 62be dbdc 2dbe
00000260: 77e2 1bbf 0308 5abe c9e5 d2be 1cfe 56be
00000270: 0770 253f 51d2 f9bc 45a6 df3e cdca bc3d
00000280: d687 a7be 0e83 563d f412 8bbe 58ad 19bf
00000290: 63e9 e6bd 39bc eebe 19ea d2be 1a62 9e3e
000002a0: 91ec 913e 7ee2 ae3e e733 a9be 3011 eabe
000002b0: 3098 eebd d2c0 45be db79 cfbe 5c82 a3be
000002c0: b4b7 acbe 4e9e 323d be3c 8bbe 4606 fb3e
000002d0: 24a2 acbb 07c4 163f d8ed c33e b017 903e
000002e0: 3b4b cdbe 8443 193f e1ea 15be 893d 283e
000002f0: 412e 0b3e d726 a23d 715b babe adc5 4c3f
00000300: 8270 0a3f ea5c 64bf 96a2 12bf da14 0f3e
00000310: 6e80 ecbe c13b 8cbc 61a2 853d bcb3 8bbd
00000320: 30e6 3abf a14b 883e 5dcb ccbc 0c13 02bf
00000330: de23 84bc 3423 8ebe cae0 2e3e 99aa 9ebe
00000340: 404d 253d 8278 adbe 6571 54bf 134e 48bf
00000350: 770d 3ebd 311b 83bd 1131 1b3e e683 193e
00000360: d792 cb3e 6b67 93bb 754d 20be e980 193d
00000370: 995e cbbe abc4 89be b7a4 24bf a1ee 23be
00000380: 442a 7e3d bde3 82be a652 d4be 099e 9cbd
00000390: ea6a 02bf 54da 3bbe 0fd4 063e 5d5c dabe
000003a0: dad1 dd3e 334f 9d3e b8c5 ce3e cba8 093f
000003b0: fac6 573e 0a06 96bd b0a7 0f3e 75f1 c1bd
000003c0: 3635 d63b 4207 02be bc67 99b9 5681 20bd
000003d0: 4fa1 c4bd f8cd d23b 3574 443f d2a1 4f3f
000003e0: 6a17 503e 4067 ebbd b10e e4be cfd9 9dbe
000003f0: bba1 6ebe 1ca9 9cb9 518a c6be 6362 17bf
0.30890045 -0.7170126 0.37496555 0.31232935 0.04487955 -0.47624183 0.23534513 -0.00945258
0.04857507 0.6191105 -0.23630011 -0.14349256 -0.049913254 -0.2993454 0.730553 -0.2202096
0.18771505 0.24447465 0.71466553 0.040312964 -0.40104577 0.5730228 0.73545325 -0.18457335
0.07371659 0.14870441 0.08131094 -0.40043738 -0.80836505 -0.31914064 -0.69833106 -0.0005858964
0.48258027 -0.35978472 -0.026351621 -0.116512425 -0.25604334 -0.04193543 -0.08091532 -0.80955344
-0.26101813 0.13295428 0.037899524 -0.2503958 -0.23827587 -0.40274617 -0.28018793 -0.47804403
-0.28189975 -0.14051417 -0.093319505 -0.08154642 -0.4004579 0.06203147 0.62231594 0.42259613
-0.84271175 -0.15218383 0.65441126 -0.06756212 0.0024510582 0.42556554 0.10903022 0.01463363
-0.20537072 -0.21451013 0.23229499 0.1519994 0.16360691 -0.62134224 -0.91104275 -0.4479902
-0.46440887 -0.046887267 -0.16948187 -0.14655706 -0.78905094 -0.2537289 -0.22137558 -0.19618444
-0.1299061 0.052560966 -0.303621 -0.15571655 -0.23156776 -0.22274442 -0.036303576 -0.9203058
-0.854922 -0.120979905 0.2749022 -0.5776368 -0.38681486 -0.46477774 0.061360132 0.17367564
0.32699168 -0.004039663 -0.5126204 0.23035672 0.07243142 0.28632954 0.102471404 0.9406838
-0.6546964 -0.121867105 -0.6576277 -0.1426375 0.049527727 0.08230771 0.29780555 -0.38635725
-0.3271068 -0.078773 0.06129556 0.060494732 -0.703814 -0.13766268 -0.27745515 -0.52031845
-0.15462323 -0.3408597 0.49186727 -0.0969945 0.5218213 -0.19856139 0.30245793 0.69506305
-0.07750134 0.7275246 -0.23909356 -0.41322604 0.39112782 -0.1700682 -0.049871832 0.008991044
0.0411927 0.04410538 0.057606883 -0.17296095 -0.3642684 -0.5423859 -0.1954458 -0.46859148
-0.4205102 0.38784644 0.4200973 -0.11420755 -0.44098565 -0.2590986 -0.22115698 -0.16978781
-0.6089243 -0.21292119 -0.41190937 -0.20995373 0.64624065 -0.030495794 0.4368154 0.09218369
-0.32720822 0.052371077 -0.27162898 -0.60030127 -0.11274984 -0.46627977 -0.41194227 0.3093422
0.28500798 0.34157175 -0.3304741 -0.45716238 -0.11650121 -0.19311836 -0.40522656 -0.31935394
-0.33733904 0.043608002 -0.2719478 0.49028224 -0.005268352 0.58892864 0.38267398 0.28143072
-0.4009646 0.59868646 -0.1464038 0.16429724 0.13591863 0.07917564 -0.3639789 0.7998913
0.54077923 -0.89204276 -0.57279336 0.13972798 -0.46191734 -0.017118337 0.06525112 -0.06821391
-0.7300749 0.266202 -0.024999315 -0.50810313 -0.016130384 -0.27761233 0.17077938 -0.3098953
0.040356874 -0.33881003 -0.82985526 -0.7824413 -0.04639956 -0.06401671 0.15155436 0.14991722
0.39760467 -0.0044984124 -0.15654548 0.037476454 -0.3972061 -0.26907858 -0.64313835 -0.16008998
0.062052026 -0.25564376 -0.41469306 -0.0764733 -0.5094439 -0.18345004 0.13166831 -0.42648593
0.43324167 0.30724487 0.40385222 0.5377318 0.21071997 -0.073253706 0.14028811 -0.094698824
0.006537105 -0.12698081 -0.00029259722 -0.039185844 -0.0960108 0.006433245 0.7673982 0.81106293
0.20321432 -0.11494303 -0.4454246 -0.30830237 -0.23303883 -0.00029880635 -0.38777402 -0.591345

conv2.bias f4 [32]
00000000: e0e5 1cbf 7702 40be d865 93be e1f8 023e
00000010: 3b17 79be 2cde c8bd 904f d2bd afb4 e9be
00000020: 2d78 b3be c175 56be 3fc1 99be ec0a 16bd
00000030: 4d90 e6be d350 3bbd cd22 abbe f6ee e5bd
00000040: acb2 0fbf c53b 903d ea03 dfbe 734b ccbe
00000050: 349e 823e a817 8fbd d04a 403d 0546 06be
00000060: daad c2be b71d 95be 8976 0ebe 156d 3cbd
00000070: 7a25 5fbd ce4e 02bf 9dea 67bd ead3 473d
-0.6128826 -0.1875094 -0.28788638 0.12790252 -0.24325268 -0.09808001 -0.102690816 -0.45645663
-0.35052624 -0.20943357 -0.30030248 -0.03663151 -0.45031968 -0.045731377 -0.33424988 -0.11227219
-0.56132007 0.0704265 -0.43557674 -0.39901313 0.25511324 -0.06986934 0.046946347 -0.13112648
-0.38023263 -0.29124233 -0.13912405 -0.046002466 -0.0544791 -0.50901496 -0.05662023 0.04878608

conv2.lin.weight f4 [32, 32]
00000000: 02c0 1fbd db78 03bf a0f6 78be fc11 07bf
00000010: 4752 2fbf b528 7c3e 43c1 5ebe 1084 ad3e
00000020: e62b b5be a025 13bf 7103 30be fb5f c53b
00000030: 35b9 d13d 8695 b7be a889 98be c0e7 1e3e
00000040: 89be 923e 807a 773e cc3e d2be 8c8e 45bd
00000050: ecf3 b43e 4dc2 37bf 9d52 21bf a07c b8bd
00000060: a294 a23e 4f6e 2a3c 1327 1e3f 4051 f1be
00000070: e8b2 8fbe 515e 96be ea59 86bc 7fbd 77bd
00000080: 3731 bd39 07b8 4c3d 006a 9a3e e74e 453e
00000090: 23f9 ba3d 113c 3ebd 575b 13be 99c8 853d
000000a0: a523 34be 6652 783e 1397 e73d 5468 8e3e
000000b0: a6b1 b6be f8b0 f0bd 0632 93be 72dd fd3c
000000c0: df46 a33d 236f 023e 088f 553e 0d02 65bd
000000d0: f835 103e 2612 ac3e f63c 9dbe 2572 60be
000000e0: a029 ac3d 1c38 143e c231 01be 8404 1fbf
000000f0: c973 39be 9212 1ebe 32d1 c0be cce2 003e
00000100: 08c5 45bf 9840 a2be bada 06bf 3dff 583e
00000110: 9ad3 893b 59b7 323f cb3e 0a3d 5f17 2b3e
00000120: 1a71 e33d faa7 b53e f3be 8b3e 82ad 45bd
00000130: 1da3 693c 79f0 0bbe 018c cf3e 3f00 e7be
00000140: f199 4fbe d262 cd3e 0d00 4c3f 3679 e5be
00000150: ef47 523d 19c3 41be 8ddf d63d 8388 083f
00000160: b3fe a43e 1da0 053e 95ca d83d c8ad cabe
00000170: e07c bb3b 69db 543e 2645 923e 1665 593e
00000180: a65b 1e3e 712e 4f3d b054 663e e501 04bf
00000190: 6346 65bf 0789 c4bd 6948 b03e e592 bf3d
000001a0: f2ea b0bc 24b3 0c3e 1af5 433d 528d f93d
000001b0: 5e7c 0abe d10a 8c3e 02ca 273e b63d 02bf
000001c0: e64b 6dbd d057 ecbe e3f3 52be 2480 86be
000001d0: 9321 bd3b 2e5b 9fbe 4fe0 043b c14a 33bf
000001e0: 77af 063f 41e4 d6be 6c13 073f 6ca7 2abf
000001f0: 3859 883d 5270 08be 2753 743e 4ab8 e9be
00000200: 4c59 edbe 3313 503d fae6 4abe 4f12 bf3e
00000210: 0fca 22be 34e9 103f 801a 29bd 3da2 64be
00000220: 4189 763e 5284 d63e e267 d83e 1d1c 843e
00000230: 267e 33be 95af 1cbd ae35 183f ee06 61be
00000240: 4941 01bd c3e4 5b3e 3e7e 273f 7114 773e
00000250: 8b60 313e e57f 063d 9e24 25be bb89 17be
00000260: 355d 86be 0941 d13e efc9 563d e4f1 6ebd
00000270: ced2 473e f553 953e 2e51 55be 8a9d e93d
00000280: 7d39 3e3e 21b0 653e 245f e33e a848 e0bd
00000290: 954e c0be e2ae 54bd bdbb fd3e 5002 ce3e
000002a0: 5a14 073e 8a43 21bd df7f 42bb 697a 9ebe
000002b0: cd60 eebe d0f4 d9bb e383 8b3e 118b b03e
000002c0: 8e69 22bd e629 2b3e 53d4 2d3e 6652 dfbd
000002d0: 560c a7be 7643 b03b f0ab 1e3e cd44 2bbf
000002e0: d525 9bbd 8b4e 2b3e 30e8 94be f359 b5be
000002f0: 1ac9 16bf 8578 9fbc b5b9 7f3c 2574 f9be
00000300: d095 fa3e 4973 973e da32 1ebe afe4 3f3e
00000310: 945c 5d3e f122 adbe 59cc 143e 59d1 863e
00000320: 3f98 aebb 4be8 96be cebd 21be c131 95be
00000330: 9944 c03e 42cb 4b3d d5fa 96be f604 1a3f
00000340: 08c2 773e b35f d93d b190 31bd 08dc 093f
00000350: b279 e8be 5bad 1abe a72f 063f 9be8 653c
00000360: 5844 6e3e 2848 613e 1efc 633d 2375 28be
00000370: a717 973e 79a3 06be 0a70 e73e a4b7 963e
00000380: b589 06bf b7b0 be3e 4289 65be 8966 3c3e
00000390: be4c cb3c b6a1 b13e bbf0 46be fc69 ccbe
000003a0: 120a 733e 1eef aa3e 1100 df3e 3710 35be
000003b0: 1494 3cbf 55c5 d8bc 1686 b93e fb73 693c
000003c0: f025 e53d fd1d 543b 9093 423e b113 08ba
000003d0: b369 b93e ed99 0c3e d95c e7be 11b9 56be
000003e0: 9d94 303e a72e 963e 0ffe 48bc d5d1 c03e
000003f0: e6fb e5bd ea96 27be cc39 94be 945e 3dbe
-0.039001472 -0.51356286 -0.2431283 -0.52761817 -0.6848492 0.24624904 -0.21753411 0.33889818
-0.35385054 -0.57479286 -0.17188813 0.0060234047 0.102404036 -0.35856265 -0.29792523 0.15518093
0.28660992 0.24167824 -0.41063535 -0.048231646 0.35342348 -0.71780854 -0.6301668 -0.09008145
0.31754023 0.010402276 0.6177837 -0.471323 -0.28066182 -0.29368833 -0.016400296 -0.060483452
0.00036085557 0.04998019 0.30158997 0.1926838 0.0912955 -0.046444003 -0.14390312 0.065324016
-0.17591722 0.24250183 0.11308112 0.2781397 -0.3568241 -0.11752504 -0.28749102 0.030989382
0.07972502 0.12737708 0.20855343 -0.05591016 0.14083087 0.33607596 -0.30710572 -0.21918543
0.08406377 0.14474529 -0.12616637 -0.62116265 -0.18110575 -0.15436772 -0.37659603 0.12586516
-0.7725377 -0.31689906 -0.526775 0.21191116 0.004206133 0.69811016 0.03375129 0.16708134
0.11105557 0.35479718 0.2729412 -0.048261173 0.014260081 -0.13665952 0.40536502 -0.45117375
-0.20273568 0.40114456 0.7968758 -0.4481904 0.051338132 -0.1892208 0.10491858 0.533333
0.3222557 0.1304936 0.105855145 -0.3958571 0.0057216734 0.20786823 0.2856838 0.21229967
0.15464649 0.0505814 0.22493243 -0.5156539 -0.89560527 -0.095964484 0.34430245 0.0935419
-0.021596406 0.13740212 0.04784117 0.12185158 -0.13524005 0.27352002 0.16385654 -0.50875413
-0.05793371 -0.46160746 -0.20600848 -0.2626964 0.0057718246 -0.31124252 0.00202753 -0.7003594
0.5261149 -0.4197102 0.5276401 -0.66661716 0.06657642 -0.13324097 0.23859845 -0.45648414
-0.4635719 0.05079956 -0.19814673 0.37318656 -0.15897392 0.5660584 -0.041285038 -0.22327514
0.24075796 0.41897827 0.42266756 0.258027 -0.1752859 -0.038253386 0.5945691 -0.219753
-0.0315564 0.21473984 0.65427005 0.24128892 0.17321984 0.032836813 -0.1612725 -0.14798634
-0.26242986 0.4086993 0.052438673 -0.058336154 0.1951401 0.29165617 -0.20831749 0.11407001
0.18576618 0.22430469 0.44408524 -0.10951358 -0.37559953 -0.051924594 0.49557295 0.4023614
0.13191357 -0.03937105 -0.0029678268 -0.30952767 -0.46558228 -0.0066514984 0.2724906 0.344811
-0.039651446 0.16715202 0.16975527 -0.10904388 -0.326266 0.0053791357 0.15495276 -0.66901857
-0.07575575 0.1672918 -0.29083395 -0.35420188 -0.58900607 -0.019466648 0.015608241 -0.48721424
0.48942423 0.29580143 -0.15449086 0.1873958 0.21617347 -0.3381572 0.14531077 0.26331595
-0.0053282077 -0.294741 -0.15795061 -0.29139522 0.37552336 0.04975439 -0.29488245 0.6016382
0.24195111 0.10613956 -0.04335088 0.53851366 -0.45405346 -0.15105192 0.5241646 0.014032508
0.23268259 0.22000182 0.05566036 -0.16450934 0.29510233 -0.13148297 0.45202667 0.29436982
-0.52553874 0.37244198 -0.22415641 0.18398489 0.024816867 0.34693688 -0.19427769 -0.3992461
0.2373431 0.33385557 0.43554738 -0.17681967 -0.7366345 -0.026461283 0.36235112 0.014248843
0.11188877 0.0032366507 0.19001603 -0.00051909225 0.36213455 0.13730593 -0.45188025 -0.20969035
0.17244191 0.29332468 -0.012267604 0.3766009 -0.112296864 -0.16366163 -0.28950346 -0.1849311

bn1.weight f4 [32]
00000000: 6951 8f3f 4da5 973f e501 903f df1f 523f
00000010: b2f5 913f 8cf1 943f 6ee1 593f 25f9 a43f
00000020: 551a 9a3f 4510 8d3f 2f16 953f a220 523f
00000030: 46f9 653f 8f69 9d3f 31f8 703f 1a9b 803f
00000040: e23c 493f 1936 8b3f a245 933f 49f1 733f
00000050: 7aa3 8b3f 8980 913f 7e1c 813f 0e00 933f
00000060: 2c4b 9e3f 8467 7b3f b566 6e3f 6923 953f
00000070: 3c24 5f3f c0c3 293f 0165 663f 33f4 bc3f
1.119672 1.1847321 1.1250578 0.8207988 1.1403105 1.1636214 0.85109603 1.2888533
1.2039286 1.102059 1.1647395 0.82081044 0.89833486 1.2297839 0.9412871 1.0047333
0.78608525 1.0875884 1.1505625 0.95290047 1.0909264 1.1367351 1.008682 1.1484392
1.2366691 0.9820483 0.9312547 1.1651431 0.87164664 0.66314316 0.8999787 1.4762024

bn1.bias f4 [32]
00000000: 30dd 3c3b 3148 5b3e 347b bfbb 0b75 ac3e
00000010: 9a50 1b3e 6870 693e c131 dfbd 3106 60be
00000020: 783c 343e 0f2b 8f3e 8b08 8c3e 00c0 b13e
00000030: b40b 89be c20d 5f3e 06a6 853e 3b27 a0be
00000040: 141f 5b3d 8037 243e 2727 fe3d 967d dabe
00000050: 1fd7 c23e 6616 993e 9282 7dbe b9df 53be
00000060: 4f20 a63e fefe ae3e 1007 313d 0c46 833e
00000070: 93bd a73e 66d4 033d 83a0 3bbe e835 623e
0.0028818361 0.21414258 -0.0058435444 0.33683047 0.15167466 0.22796786 -0.10898162 -0.21877362
0.17601192 0.2796254 0.27350268 0.34716797 -0.2676674 0.21782592 0.26103228 -0.3127993
0.053496435 0.16036797 0.124098115 -0.4267394 0.3805475 0.298999 -0.2475684 -0.20690812
0.32446525 0.3417892 0.043219626 0.2563938 0.3276182 0.03218498 -0.18322949 0.22090876

bn1.running_mean f4 [32]
00000000: a41b c93e c4e6 ad3e b881 6c3f 89cd 923e
00000010: 1c5f 953e 0a27 343e 175a 553e d1af ce3e
00000020: 6e24 853e c4dd 6c3e 26b4 593e e772 933e
00000030: fa75 3e3f 9ce6 af3d f1f9 253e 85b9 9f3e
00000040: 328c db3e a77b 813d 4d4a 063e 1e74 e43d
00000050: 970f 583e 89cd 373e 8fff f13e e66d e43e
00000060: 67da 3f3e cbcb 2a3e cc8e f73d a76c 663e
00000070: 829d 033e a34e 1a3f 7431 c53e 65f2 c03d
0.392789 0.33965123 0.92385435 0.28672436 0.29174125 0.17593017 0.20835148 0.40368512
0.26004356 0.23131472 0.21260127 0.287986 0.7439877 0.08588907 0.16208626 0.31196228
0.42880398 0.06322413 0.13114281 0.1115496 0.21099697 0.17949499 0.47265288 0.44615096
0.18735658 0.16679303 0.12087783 0.22502385 0.12853053 0.6027624 0.38514292 0.09421233

bn1.running_var f4 [32]
00000000: ff7f 5d3e 06e9 883e dce0 493f be24 3d3e
00000010: 000a 2d3e ffed c23d 8e44 133e 4361 8d3e
00000020: 37d7 293e df14 253e 63ac 063e afcb 4d3e
00000030: bfab 123f 628c 303d 7098 be3d 8cde 873e
00000040: c3b8 7f3e 270c e33c fe89 913d f15b bd3d
00000050: bb57 073e 0c22 c83d c9e9 b33e 302b b93e
00000060: bf2b f43d 7af0 ac3d 37a7 843d 6ade ea3d
00000070: 5238 873d be17 de3e 6332 b73e 36e9 593d
0.21630858 0.26740283 0.78858733 0.18471047 0.16898346 0.095180504 0.1438162 0.27613267
0.16586004 0.16121243 0.13151698 0.2009723 0.57293314 0.04310263 0.09306419 0.26536977
0.24972825 0.027715756 0.07106398 0.09246052 0.1321706 0.09772119 0.351393 0.36165762
0.119224064 0.08444305 0.06477206 0.11468203 0.06602539 0.4337749 0.3578063 0.053200923

bn2.weight f4 [32]
00000000: 48b5 403f a06f 263f d106 7e3f e572 2c3f
00000010: 9b16 503f 7b07 bb3e 6c5c c73e 3b13 fa3e
00000020: 0a1a 303f 9d6a 163f c8a9 303f adfc ce3e
00000030: 3ea2 4e3f 7a32 893e 4fd5 bd3e 98ac ca3e
00000040: a0ac 613f 53e9 423f 65f3 783f 0232 3a3f
00000050: c3cb 073f f47b fa3e f7ee 233f 1ddb e03e
00000060: 8aad 473f b3ea 413f a22c 133f ab27 073f
00000070: 27fd 1e3f 5061 4d3f 291f 4a3f 63c8 eb3e
0.75276613 0.65014076 0.9922915 0.67362815 0.81284493 0.36529145 0.389377 0.48842797
0.6878973 0.5875643 0.69009066 0.4042715 0.8071631 0.26796323 0.37076804 0.39584804
0.8815403 0.76137275 0.9724639 0.72732556 0.5304529 0.48922694 0.64036506 0.4391717
0.77999175 0.7574875 0.5748998 0.52794904 0.6210503 0.8022661 0.78953797 0.4605132

bn2.bias f4 [32]
00000000: 050c 34be 4fc0 5ebd 3e32 723e acca d93c
00000010: 9522 713e a2e6 0dbe 5d4a d1be 0f92 b23e
00000020: f22e b83d 855d 4c3d a62d 02be 2b39 063d
00000030: 0c4a 083e f50d 70bd c319 093e e709 0abe
00000040: 2861 253e cf15 263e a7a8 7d3e 067d 6b3e
00000050: c555 1a3d 2c8f a43a c4c4 5ebd 4b49 0ebd
00000060: 8df6 d5bd 2764 ee3d ab21 303d 18e7 863d
00000070: a4fe 19be cb0b 603e 8c5c a5bd 4742 3fbe
-0.1758271 -0.05438262 0.23651978 0.0265859 0.23548348 -0.1385751 -0.40877047 0.3487706
0.08993329 0.049893875 -0.12712726 0.032769363 0.13309497 -0.05860706 0.13388734 -0.1348034
0.16150343 0.16219257 0.24771367 0.22996911 0.037679452 0.0012554876 -0.05438687 -0.034737866
-0.104474165 0.11640196 0.04300086 0.065870464 -0.15038544 0.21879499 -0.080742925 -0.18677627

bn2.running_mean f4 [32]
00000000: 2df7 b63e 612f 373f 0ef5 a53f daad 7e3f
00000010: 645a e03f aa77 2e3f 3458 1a3f c93f e03f
00000020: 05be 1f3f 9b86 db3e a2a8 303f f91b 093f
00000030: 4151 a73f 2c02 d33e 823f 1a3f 3bd6 a63e
00000040: 3cfb b63f 562a ce3f aaa8 b23f b1de 9f3f
00000050: 0c56 e03f 4ddc 0e3f a1c9 323f 934a 323f
00000060: 59c6 7e3f 835e 8d3f e32e 783f 0e1b 803f
00000070: 29f5 8d3f d253 9f3f ba4b 733f d5ef 403f
0.35735455 0.7155667 1.296541 0.99484026 1.7527585 0.6815134 0.6029084 1.7519466
0.6239932 0.42876133 0.69007313 0.5355831 1.3071672 0.41212595 0.60253155 0.3258532
1.4295421 1.610667 1.3957722 1.2489835 1.752626 0.558049 0.6983891 0.6964504
0.99521405 1.1044468 0.96946543 1.0008256 1.1090442 1.2447455 0.95037425 0.75365955

bn2.running_var f4 [32]
00000000: 72a8 0e3f 402d 8b3f e571 e040 9d69 ef3f
00000010: 9a4e 3a41 1a59 c63f 0e77 1040 a8b6 ec40
00000020: 2196 ba3f 3c7c 653f 92db 1240 c606 9c3f
00000030: 49e1 fd40 2914 1c3f 2cec be3f 88d9 cf3e
00000040: 16f4 1941 a0ff 1441 65e7 1841 a60c 1340
00000050: 5fc6 6840 35b8 4c3f 2986 993f 28d6 973f
00000060: 7267 ba40 9255 ce40 d8cc d73f b782 5740
00000070: 1cd5 7e40 8bec db40 1ebc ea3f f17a de3f
0.5572578 1.0873184 7.013903 1.8704106 11.64419 1.5495942 2.2572665 7.397297
1.4577066 0.8964269 2.2946515 1.2189567 7.9337506 0.6096826 1.4915824 0.4059565
9.622091 9.312408 9.556493 2.297647 3.6371076 0.7996858 1.1994067 1.186223
5.8251276 6.4479456 1.6859388 3.3673532 3.9817572 6.872625 1.8338659 1.7381269

rnn1.weight_ih_l0 f4 [128, 64]
00000000: b001 cdbe 5529 383d b836 d03e d7f4 f33d
00000010: 08f9 b0bd d5b9 d0bd d579 bc3e 6ae5 fa3e
00000020: 04c5 a6bd 6f6a 473d 3526 463c 6845 2b3d
00000030: 4735 d23e fafc 083e 4a21 143e 917b ecbd
00000040: 036e 12be 3fca 72be 29d4 95be 9bb7 ec3e
00000050: bc9e 5a3d e81c 12be fcd6 f63e e189 a73e
00000060: 6e32 633e 37cb 77bd ef1a c33e d7ca 07bd
00000070: 47a4 b23c b43d d7bc 0f82 f13c c2e3 633d
00000080: e807 233e d6c5 983e 3cf7 633e b724 3d3e
00000090: 0586 433e 0647 233e 55bd bf3e 2791 cfbd
000000a0: 1c1f 84bd 6e04 f9bc 460b 053e 0d68 d4bd
000000b0: 89d8 0abe 217e 5f3e 943c f63d f8d4 493d
000000c0: 7ad8 e2bd f462 e1bc 926c dd3d ecaf 19be
000000d0: c4ce 043e 2bda b6be a5c9 23be ca2b b7bd
000000e0: 4394 3b3e 7c4a 91bd d66a 0f3e 1e47 6e39
000000f0: 5d06 cc3d 001b 61be 8c3a 87be 50ce f73d
00000100: e17d f1be 06c0 b93d 3605 9abd 6c3e afbd
00000110: a50a 67bd abb4 72be 6996 b03d 14f9 f63d
00000120: 8e2e 143e 23d7 c93e 1151 8ebe 6968 dfbd
00000130: d8da 0d3f 2ac1 003e f206 d63e b0c8 7bbd
00000140: ced6 55be b687 403e ab7e 98bd b92c 89be
00000150: cf98 31bf a3bf 9cbe cf15 dcbd cc16 ee3e
00000160: 45e2 ccbe 9ea8 dbbe f43d 05bd 2752 4ebe
00000170: 510b 5cbe a4f1 97bd 7045 393e bae5 e8be
00000180: 52c1 d9bc 7bb6 23be c656 f73d 85c0 633e
00000190: f95b 82bd adc1 88be 42cb c1bd 88f5 16be
000001a0: 2e15 083f 2869 e23d ee3f 6d3e 75cc 793d
000001b0: be0e 5bbe 67ff 963e ede4 e53e f45b ce3e
000001c0: 776c b33b a369 c13c b3f3 9bbe 6cc0 303e
000001d0: f329 d63d afae 32bd b6a5 a13d c256 0a3f
000001e0: b1a6 ba3e bfa8 05be a352 9c3e 8ec5 b33e
000001f0: c435 3dbe 4656 283d 5ae6 47be d5e4 d9bc
00000200: 240b 883e 8186 c43d 3389 153f 0bbb 35be
00000210: 1f2a 04bc 1053 d1be 6f6b 2e3d 3ee1 073f
00000220: 4df2 77be 2fc0 a3be 7dcd efbe 130a 1ebf
00000230: 5611 d43e 2b9d 17be fc7b afbe a2fc da3e
00000240: f639 e0be 8dc9 85be 2db1 66bd 6b51 64bc
00000250: 7f2d eebe ee31 f7be 11df 113f 1783 c5bd
00000260: 5fe9 af3e 2e1a 5c3c 372d ea3d 2020 cebd
00000270: a389 253d 0168 953e 5e8a 2d3d eec5 61be
00000280: 182e b53e 285d 7d3e 0944 11be e2cc a93e
00000290: 220c b7be 90cf b93e 53f7 813e 0386 f3be
000002a0: d405 67bc 2564 6f3d ac11 8abd 00a9 8d3e
000002b0: 5338 4cbe 7153 a53d 3ec0 15bd c6cd 47be
000002c0: ebfd 15be e6b1 5cbe 0531 8cbe 224a 19bf
000002d0: 86f1 0abe 96d1 c0bd d527 933e f803 7d3e
000002e0: 26c5 0e3e 5946 19be 82e1 d13c 4dad 6b3e
000002f0: 250c e0be 7384 06be b55a f83e 0b53 203f
00000300: 3357 b03e bfaa 873e 0912 8ebe 3741 efbe
00000310: 660c 33be d0d7 59be 7b2c d83e 2e67 183e
00000320: 2c06 d6bd 9ead 6c3d e38f 783d 9000 7e3d
00000330: 5ebb a13e 2c4a 933e cb4b a4be 4fe1 8cba
00000340: bdf4 aebe b8ff 23be 729b 18be 51fc e03e
00000350: 2f2d d9be dce7 cbbe 545a 643e 3453 4e3c
00000360: f369 1ebf cd24 803c 4c4c 42be d9ec e5be
00000370: e3d6 933c 2016 0fbf 5b2b ef3e 2981 cebe
00000380: eb71 1ebe 1370 9b3e e18b babe d391 b93e
00000390: 7132 f5bd 2488 1abe 5f23 81bd b024 dabd
000003a0: 1ac9 b63d 0d17 d1be 79a6 213f 175b 0e3d
000003b0: a4ef 0b3d 2bba ea3d 518a 373f eed1 6c3d
000003c0: 5f69 c53d 43be aa3e f5a4 733d 3f0b 063d
000003d0: 9bf9 3dbc ae52 97be 65d0 97bc 1fb7 af3e
000003e0: 4fe1 0f3f 83f9 31be 9bad 4f3e 7fbd 843e
000003f0: 75eb 74be 136d 663e b433 ebbd 4372 873e
-0.4004035 0.044961292 0.40666747 0.11911934 -0.08641249 -0.10191695 0.368117 0.49003154
-0.081430465 0.048685487 0.01209407 0.041814238 0.41056272 0.13377753 0.14465824 -0.11547006
-0.14299779 -0.23709963 -0.29263428 0.4623383 0.053374037 -0.1426884 0.48210895 0.3272238
0.22187206 -0.060496535 0.38106486 -0.033152428 0.02180685 -0.02627454 0.029480962 0.05563713
0.15920985 0.29838437 0.22262281 0.18471037 0.19094093 0.15945062 0.37449136 -0.101351075
-0.06451246 -0.03039762 0.12992582 -0.103714086 -0.13559164 0.21825458 0.12023273 0.04927537
-0.11076446 -0.027513005 0.10811724 -0.15008515 0.129695 -0.35713324 -0.1599489 -0.08943899
0.18318276 -0.07094285 0.14005598 0.00022723942 0.09962151 -0.21982956 -0.26411855 0.12099898
-0.4716635 0.09069829 -0.07520525 -0.08556828 -0.056406636 -0.23701732 0.086224385 0.12059227
0.14470884 0.3942195 -0.27796224 -0.109085865 0.55412054 0.12573686 0.41802174 -0.061470687
-0.20882723 0.1880177 -0.07446035 -0.26791933 -0.6937379 -0.30614957 -0.10746347 0.46501768
-0.4001638 -0.42902082 -0.032529786 -0.20148526 -0.21488692 -0.07419136 0.18092895 -0.45487767
-0.02658144 -0.1598758 0.120770976 0.22241409 -0.06365199 -0.26710263 -0.094625965 -0.147421
0.5315732 0.11055213 0.23168918 0.060986 -0.21392342 0.29491732 0.4490122 0.4030453
0.0054755765 0.023609942 -0.30459365 0.17260903 0.1045722 -0.043623623 0.07892935 0.5403863
0.364553 -0.13052653 0.30531797 0.3511166 -0.18477541 0.0410979 -0.19521466 -0.026598373
0.26571 0.09595967 0.58412474 -0.17747132 -0.008066683 -0.40883684 0.042582925 0.5307807
-0.24213524 -0.31982562 -0.46836463 -0.6173412 0.41419476 -0.14806049 -0.3427428 0.4277087
-0.4379422 -0.26130334 -0.05632131 -0.013935427 -0.46519086 -0.4828028 0.56981 -0.09644144
0.34357736 0.013433976 0.11434405 -0.10064721 0.040414464 0.2918091 0.042368285 -0.2204816
0.3538673 0.24742568 -0.1418611 0.33164126 -0.35751444 0.3629117 0.25384006 -0.4756318
-0.014100511 0.058445115 -0.06741652 0.27668 -0.19943361 0.08072556 -0.03656029 -0.1951209
-0.14647643 -0.21552238 -0.2738115 -0.5987874 -0.13568696 -0.09414975 0.28741327 0.24708545
0.13942394 -0.14968242 0.025620226 0.23015328 -0.43759266 -0.13136463 0.48506704 0.62626714
0.34441528 0.26497456 -0.27748135 -0.46729442 -0.17485198 -0.21273732 0.42221436 0.1488311
-0.10450396 0.05778276 0.060684096 0.062012255 0.31588262 0.28767526 -0.32089075 -0.00107483
-0.34171095 -0.16015518 -0.14903048 0.43942502 -0.42417285 -0.39825332 0.22300082 0.012593079
-0.61880416 0.015642548 -0.18974417 -0.44907263 0.018046802 -0.55893135 0.46712765 -0.40332916
-0.15473144 0.30358943 -0.36434844 0.36244068 -0.119725116 -0.15090996 -0.063055746 -0.10651529
0.08925076 -0.408379 0.6314464 0.03475484 0.034164086 0.1146129 0.7169543 0.057817392
0.096392386 0.33348283 0.059483487 0.03272557 -0.011595155 -0.29555267 -0.018531987 0.34319398
0.5620317 -0.17380337 0.20281069 0.25925824 -0.23917945 0.22502546 -0.11484471 0.26454362

rnn1.weight_hh_l0 f4 [128, 32]
00000000: b80f eb3c d1b0 1f3e 9017 ca3c 60d4 063c
00000010: 789f 52bd 1cb4 183d 313d 34be 209b 34be
00000020: 00dd a7bc 4c1b fbbd ee6f fbbd 70ce f5bc
00000030: 4edd c83d f22d b33d 0092 7bbd b0ac 4cbc
00000040: 010c 283e 08a2 1c3d 3233 f63d 4df5 95bd
00000050: 99fd 21be 11db a7bd a087 7e3c f05e 2fbd
00000060: eead c5bd 1513 2e3e 3516 27be 0013 933b
00000070: 7047 903d 5c58 43bd 3605 9d3d 007f 243a
00000080: 0b35 d7bd 21dc c4bd 42dd a2bd 89be 30be
00000090: eea4 e13d 35ee 253e 24fa b9bd 3028 0f3c
000000a0: 18f4 713d 3004 4d3d 06f3 c8bd 6a00 dcbd
000000b0: 9336 303e bad2 d23d 2738 293e b225 fe3d
000000c0: 507f 57bc 5ae0 fe3d 20cb b9bb 00c2 8fba
000000d0: a2dd 9cbd 432b 0d3e 64f0 19bd 8841 d23c
000000e0: 3058 10be 8462 783d dc22 acbd 0c81 23bd
000000f0: 287f 81bc 0437 863d a074 ec3b d054 fc3c
00000100: 0026 ebbd dcc6 08be 0662 823d 8814 95bd
00000110: 8a11 1cbe e769 95bd 9a96 31be 78ac 103d
00000120: 8019 573c 5f29 273e dba3 c7bd c23c bbbd
00000130: b4e4 2c3d a042 3ebd d711 0d3e 104d dc3c
00000140: 00bb 7bbb 81e5 8abd 3abf da3d 3478 a9bd
00000150: e494 913d 8e93 e83d 37fe 0dbe af63 20be
00000160: 602b ccbd ceb7 ad3d b4b2 c7bd 00e4 883c
00000170: 10a7 da3c c003 183d 6a9d b8bd e08a ca3b
00000180: 12df fa3d 1eab bb3d 2453 0a3d d0f5 0fbe
00000190: 5e54 aa3d 2429 90bd a65f fd3d d65c 963d
000001a0: a0e8 04bd 20f4 8b3d 868c 96bd b8f5 f93c
000001b0: 4084 10bc 00d7 373b 90f4 7e3d 3d4a 303e
000001c0: 11cd 9fbd e5c4 303e f8df 04bd 4b2b 2c3e
000001d0: 0cf1 223d 6030 6c3c 3428 72bd 50c7 bebd
000001e0: 5704 32be 4c9e c5bd 88a8 81bc b349 183e
000001f0: 86ea c33d 407e fc3c 6431 2fbe 5a0f ff3d
00000200: 2641 f93d cdbf a2bd 32a2 923d d9d2 16be
00000210: 070b b7bd c082 5abd b622 24be b0ef 30bc
00000220: f446 143d fcc2 523d 4567 293e 2a16 d13d
00000230: fc9f 25be 3847 63bd 56d4 ca3d 5dbe 2dbe
00000240: 401f 33bc 62fe 883d 2ac2 f2bd 7947 1b3e
00000250: ccae eebd 62ca 04be 0f69 09be 70aa fdbc
00000260: 3ccc 713d 0892 503d 50e2 b2bd 2d53 1e3e
00000270: ca03 c2bd 9909 0e3e 2838 733d 12a3 69bd
00000280: 37e1 053e 2816 703d b1ea 19be 5200 b83d
00000290: 7f32 2b3e 5e68 07be 18a7 18bd cd12 12be
000002a0: beb9 f23d f214 c03d a907 043e 3c5e 4b3d
000002b0: e8cb eebc 804d 8dbc bbdf 06be 86c1 e53d
000002c0: e13e 91bd 88ee 9e3c c000 c53b e8e3 5a3d
000002d0: 216a 11be 7060 e5bc 1206 a73d 6bcd 05be
000002e0: eb86 9bbd 975a c7bd a229 19be f7bc 303e
000002f0: e365 1c3e e6dd e23d 980b 16be 0078 d3ba
00000300: 74f7 043d 1298 a03d b4d6 113d f2e8 ddbd
00000310: 60aa b73b 6961 12be b28e b53d 720b e43d
00000320: be8a 81bd 6273 1ebe 006e d73a be15 b93d
00000330: 6806 f7bd b2d8 983d be24 fc3d 1c0f 16be
00000340: f237 c83d 32bb a33d 1950 babd 51ed 173e
00000350: 231b aebd c195 093e 07c1 0abe 23c8 0e3e
00000360: e0cd 22bd 43e7 1fbe cad7 c03d f03a 6dbc
00000370: 1083 4c3d bac7 a63d 509f 9a3c 3044 673d
00000380: 1a93 18be d1c5 1fbe 8502 aabd 3849 bdbd
00000390: 48a0 2abe 681b e23c d0cb 65bc f076 1fbd
000003a0: 9096 06bc d2f9 ad3d c657 86bd c0f9 363c
000003b0: 205b 81bc 86d3 ae3d 680f 9abc fc0c 823d
000003c0: 9cc0 8dbd ad39 0c3e 30be f33c 489e f33c
000003d0: 3248 af3d 8772 34be f6f9 9f3d 656c 113e
000003e0: d6d2 d83d 0218 eb3d d467 11be 17ae 1c3e
000003f0: c0e3 213d ad70 30be 3bcd 233e df27 0d3e
0.028694019 0.15594794 0.024669439 0.008229345 -0.051421613 0.03728114 -0.17601468 -0.176373
-0.020491123 -0.12261066 -0.12277208 -0.030005664 0.098078355 0.08748998 -0.061418533 -0.012492344
0.16410829 0.038240463 0.120214835 -0.07322178 -0.15819396 -0.081960805 0.015535265 -0.04281515
-0.09652315 0.16999467 -0.16317065 0.004488349 0.070448756 -0.047691688 0.076670095 0.0006275028
-0.10508164 -0.09612299 -0.07952358 -0.17260183 0.11017786 0.1620415 -0.09080914 0.008737609
0.059070677 0.05005282 -0.09811978 -0.107422665 0.17208318 0.10294099 0.16525327 0.124095336
-0.013152912 0.124451354 -0.0056699663 -0.0010967851 -0.076594606 0.13786034 -0.03758277 0.025666013
-0.14096141 0.060640827 -0.084050864 -0.03991799 -0.015807703 0.06553462 0.007216051 0.03080216
-0.11481857 -0.13357109 0.06366353 -0.07279307 -0.15241066 -0.0729559 -0.17342606 0.03532073
0.013128638 0.16324376 -0.0974805 -0.09142448 0.042210296 -0.046450257 0.13776337 0.026892215
-0.0038411021 -0.06782056 0.10681005 -0.0827488 0.07108477 0.11356269 -0.13866507 -0.15663026
-0.099692106 0.084823236 -0.09750882 0.016710281 0.02669099 0.03711295 -0.09014399 0.006181106
0.122495785 0.091634974 0.033770695 -0.14058614 0.08316873 -0.07039097 0.12371759 0.07341926
-0.03244841 0.068336725 -0.073510215 0.030512676 -0.008820593 0.0028051734 0.06224495 0.1721582
-0.07802785 0.1726261 -0.032440156 0.1681339 0.03978066 0.01441583 -0.059120372 -0.093153596
-0.17384468 -0.09649333 -0.015827432 0.14871864 0.09566216 0.03082192 -0.17108685 0.124541
0.12170629 -0.07946739 0.071598426 -0.1472887 -0.0893765 -0.05334735 -0.16028866 -0.010799333
0.03620048 0.051455483 0.165433 0.102093056 -0.1617431 -0.05548784 0.09903781 -0.16967149
-0.010932744 0.06689145 -0.1185344 0.15163983 -0.116544336 -0.12967828 -0.13418983 -0.03096506
0.059032664 0.050920516 -0.08734572 0.15461417 -0.09473379 0.13870849 0.059379727 -0.05704028
0.13074194 0.05861488 -0.15030934 0.08984436 0.16718481 -0.13223407 -0.037268728 -0.14264984
0.11851834 0.09378995 0.12893547 0.049650416 -0.029149964 -0.017248869 -0.13171284 0.11218552
-0.07092071 0.01940085 0.0060120523 0.053440005 -0.14200641 -0.028000087 0.08155455 -0.13066642
-0.07594093 -0.097340755 -0.14957288 0.17259584 0.15273242 0.1107748 -0.1465286 -0.0016133785
0.032462552 0.07841505 0.035605147 -0.108354464 0.005605027 -0.14294972 0.088651076 0.111349955
-0.06325291 -0.15473703 0.0016435981 0.0903735 -0.12061769 0.07463206 0.123116955 -0.14654201
0.09776296 0.07994689 -0.09097309 0.14836623 -0.0850127 0.13436033 -0.13550197 0.13943534
-0.03974712 -0.15615563 0.094161585 -0.014479384 0.04992968 0.081435636 0.018874794 0.056461513
-0.14899865 -0.15602805 -0.08301262 -0.09242481 -0.16662705 0.027600959 -0.0140256435 -0.038931787
-0.008214608 0.08494915 -0.0655971 0.0111679435 -0.015790522 0.08536439 -0.018806174 0.06350133
-0.06921503 0.13693877 0.029753774 0.02973856 0.08558692 -0.17621814 0.07811348 0.14201505
0.10587089 0.114791885 -0.14199764 0.15300785 0.03952384 -0.17230482 0.15996258 0.13784741

rnn1.bias_ih_l0 f4 [128]
00000000: 153f 25bf 73d9 a3be 6a14 efbe fd9e a6be
00000010: 2de6 94be 0b7f 67be 628e 02bf fa39 f4be
00000020: 6458 c7be 5f5a 00bf 7749 01bf bea0 69be
00000030: 035e 25bf ed30 43bf 2c84 95be 6f30 b7bd
00000040: 477d 21bf ba44 babe 4e49 9dbe 4f7a a7be
00000050: dda0 39be 7bad e2be 3683 97be 4612 81be
00000060: bcf3 d7be 8183 d1be 6e77 bdbe 3637 2bbf
00000070: fc12 b0be 7324 09bf 6987 1cbf cc25 2ebe
00000080: 601a 5b3d 4010 aebb b0b9 bebd acb0 2cbd
00000090: 54cb 50bd 0d93 193e 301f 20be 201a 503d
000000a0: e50b 243e 4058 603d bd23 c0bd d4f7 543d
000000b0: e258 913d 02e2 9b3d 10f0 6f3c 188f 1ebe
000000c0: c820 223d c018 18bd 56a6 c03d 6524 223e
000000d0: 7391 81bd c0f6 443b a767 143e 30ff f7bc
000000e0: b810 db3c ba6f 8cbd b06c 353d b568 95bd
000000f0: 49ca 1ebe 8bb0 1ebe 8602 9f3d 307b d9bc
00000100: 0b29 bcbd 1cc1 283e 416e 98bc f0a2 9a3e
00000110: 2f8a 213e 74c2 44be 5725 943d ea9c 05bd
00000120: a38f 493d 3497 133d 4ae6 8cbe 3fee abbd
00000130: 8f98 24bd d2bf 12be a020 27be 8a6c ab3d
00000140: a0bd 733d 9138 413e a6dd c4bd b83d 23bd
00000150: 2729 fd3c 7817 823e f097 043e 62c7 d2bd
00000160: 582f 773d d579 4d3e 659b 0dbd 68e8 b4bd
00000170: e6ac 053d 304a 09be 33ad 573e c960 6f3e
00000180: d42c b4be 304d 43bf a76d 03bf abc7 13bf
00000190: 909f 73be 0d04 88be ba83 e7be 24f6 8dbe
000001a0: b3bd f4be eb5d 82be 0609 c8be 2283 77be
000001b0: 8623 e9be 83bb 2ebf 2c56 9fbe d771 aebe
000001c0: 8bd8 b5be 0391 19be 2a00 7bbe 5b99 a4be
000001d0: 6ba6 36bf 4d8d edbe c44c 3dbf 7c26 c5be
000001e0: 6a7f 4fbf 91db afbd 41f9 40be a4b7 b3be
000001f0: a510 91be fa78 bebe 30c7 34bf 2678 9fbe
-0.6454938 -0.32001838 -0.46695262 -0.32543173 -0.2908186 -0.22607057 -0.5099851 -0.47700483
-0.38934624 -0.50137895 -0.50502723 -0.22815225 -0.64596575 -0.7624653 -0.29202402 -0.08944785
-0.63081783 -0.3638056 -0.3071999 -0.32710502 -0.1812777 -0.4427298 -0.29592294 -0.25209254
-0.42178142 -0.40920642 -0.3700518 -0.6688112 -0.34389484 -0.5357124 -0.6114412 -0.17006606
0.05349195 -0.0053119957 -0.09312761 -0.042160675 -0.05097516 0.14997502 -0.15636897 0.050806165
0.16020162 0.05477166 -0.093818165 0.05199416 0.07097031 0.07611467 0.014644638 -0.15484273
0.039582044 -0.03713298 0.09406726 0.15834196 -0.0632657 0.00300543 0.14492665 -0.03027305
0.02674137 -0.06857248 0.044293106 -0.07295362 -0.15506853 -0.15497033 0.07764153 -0.026547998
-0.09187516 0.16479915 -0.01860726 0.30202436 0.15775369 -0.19214803 0.072336845 -0.032620348
0.04920925 0.03603287 -0.27519447 -0.08395051 -0.040184554 -0.14330986 -0.16321039 0.083703116
0.059507012 0.18869235 -0.096125886 -0.03985378 0.030903412 0.2540853 0.12948585 -0.102919355
0.060347885 0.20066006 -0.034572024 -0.088333905 0.032635592 -0.13407207 0.21062164 0.23376764
-0.3519045 -0.76289654 -0.5133919 -0.57726544 -0.23791337 -0.2656559 -0.45217687 -0.27726853
-0.4780098 -0.2546228 -0.39069384 -0.24171117 -0.45534915 -0.6825487 -0.3112043 -0.34071228
-0.35516772 -0.14996724 -0.24511781 -0.3214825 -0.71347684 -0.46396866 -0.7394526 -0.38505924
-0.81053793 -0.08586801 -0.18845083 -0.35101044 -0.2833301 -0.37201673 -0.70616436 -0.31146353

rnn1.bias_hh_l0 f4 [128]
00000000: 1f96 09bf ab78 0dbf 79e9 85be 23d1 a9be
00000010: a636 54be fc3d 8abe 6350 b5be 383c acbe
00000020: 417d 21bf 670d ccbe 31d1 c3be 8dce bebe
00000030: 11d5 15bf 3970 37bf a2fb 0cbf 6ca6 78be
00000040: 7f5c 1cbf c4de 5bbe fac4 bcbe db9c b4bd
00000050: 411c a7be 778e d2be 2fd1 d9be e950 ddbd
00000060: 3a74 d1be 34c8 a2be 1285 c2be d8bd 0ebf
00000070: da49 0abf a550 91be ea02 40bf ed31 a0bc
00000080: 18c8 833c e0c0 693d 8c69 a4bd 90d7 85bc
00000090: 04ad bcbd 7515 1a3e 86c5 8e3d b656 bfbd
000000a0: cdc9 87bd ce95 ac3d 5cf5 dcbd 1062 0f3d
000000b0: 5f77 b2bd 9819 b2bc eef0 f83d 7014 d8bc
000000c0: faf8 c83d dedb eebd 25ce 0d3e 50bd 2abe
000000d0: f56b 2cbe 5663 32be 7a8e 1cbe 7048 7ebc
000000e0: d0da 2cbe c041 233d 51ae bdbd 20c8 e83c
000000f0: 1016 46bc 9479 863d 60de bfbc 5dde 10be
00000100: d07c cebd 5b3d b33d 0c6f 76bd a2fd dc3d
00000110: dd8a af3d 9363 a0bc 5e96 fabc d994 9b3d
00000120: d935 ad3d 715a c9bd 8874 843c 4a61 24be
00000130: a485 8cbd 5e33 3dbe 1321 49be 16da 413c
00000140: aef5 3f3e f5dd c53d 8b90 5abc 5ab7 b53d
00000150: 48f7 523e 62e7 223e 74c2 d73d 091a 263e
00000160: cf0c 1e3e e852 26bd afc7 54be 04a0 dabc
00000170: f294 47bd ab2b 0ebe 7c55 dd3d 818c cb3c
00000180: 3f72 a7be f02e 45bf 75d1 9cbe a986 cbbe
00000190: 151b bbbe 43bd b0be 959a 8bbe e1b0 3abe
000001a0: 203e 3dbf 51aa 63be a3fb 7dbe b25f 17be
000001b0: c5ac ccbe dc59 b4be 181e b6be fb8a 81be
000001c0: d152 c6be 195a d9be 5462 40bd 6e88 cdbe
000001d0: 477e 31bf c963 37bf 09b0 06bf 68b6 fcbe
000001e0: 067f 4abf d7f8 54be 0e48 c0be 81da 85be
000001f0: 4101 04bf 7480 5dbe 6ede 01bf 4893 a9be
-0.5374469 -0.5526225 -0.26154688 -0.3316737 -0.20723972 -0.27000415 -0.35412893 -0.33639693
-0.6308175 -0.39853975 -0.38245538 -0.3726696 -0.5852824 -0.71655613 -0.5507146 -0.24282235
-0.6107864 -0.21471697 -0.3686903 -0.0881898 -0.32638744 -0.41124317 -0.42542407 -0.10806448
-0.40908986 -0.31793368 -0.3799215 -0.5575843 -0.5401894 -0.2838184 -0.75004447 -0.019555056
0.016086623 0.057068706 -0.08027944 -0.01633814 -0.092126876 0.15047248 0.06971268 -0.09342711
-0.06630287 0.084270105 -0.10788986 0.03500563 -0.087141745 -0.02174072 0.12155329 -0.026376933
0.098131135 -0.1166303 0.13848169 -0.1667378 -0.16838057 -0.17420706 -0.15288725 -0.0155202
-0.16880345 0.039857626 -0.09261764 0.02841574 -0.012090221 0.06566158 -0.023421466 -0.14147325
-0.100824 0.08751937 -0.060164496 0.10790564 0.08571408 -0.01957873 -0.030589279 0.0759675
0.08457536 -0.098317035 0.016168848 -0.16052738 -0.068614274 -0.18476626 -0.19641523 0.011831781
0.18746063 0.096614756 -0.013340126 0.08872862 0.20602143 0.15908578 0.10535136 0.16220869
0.15434574 -0.04060641 -0.20779298 -0.02668763 -0.04872603 -0.13883846 0.108073205 0.02484727
-0.3270435 -0.77024746 -0.30628553 -0.39751175 -0.365441 -0.34519395 -0.27266374 -0.18231536
-0.7392292 -0.2223294 -0.24803023 -0.14782599 -0.39975563 -0.35224807 -0.35569835 -0.25301346
-0.3873506 -0.42451552 -0.046968773 -0.4014315 -0.6933331 -0.71636635 -0.5261236 -0.49357915
-0.7910007 -0.2079805 -0.37554973 -0.26143268 -0.51564413 -0.21631032 -0.50730026 -0.3312018

rnn2.weight_ih_l0 f4 [128, 32]
00000000: 3302 b9be 3cb5 82be 9964 d03e 40c3 323e
00000010: 8a2c 1bbe 2428 543d a29b 363e 3c8f a23e
00000020: c8f1 353d 7f63 c63c 9b15 77be 79e9 4a3f
00000030: 0b2f e0bd 3b6a d03e 5f1e 9fbd c994 3dbe
00000040: 55e5 56bd 8ac0 d33d 1b7f 413c 18f2 f73d
00000050: 59ce 22bf 0783 5e3e 4fad 1bbf d6c7 acbd
00000060: 186a 3cbe 8ef8 eebd eade bdbb 38a2 19be
00000070: f31a 71be 88bf 95be 908a 43be 84fb 92be
00000080: d332 40be 250a 77bc 5253 dd3d 196b 12bd
00000090: 3c5b a33e cccf 513e eab7 0d3f 62db ac3c
000000a0: be4f 3c3e 638a 5d3e 35b3 acbd aa16 dd3d
000000b0: 9d4f 3cbe 0064 e23d 5331 41be 6846 03be
000000c0: 0645 0e3e 9d80 953d 3df3 8a3d f66b f33e
000000d0: 2b3d 46be 4409 adbc 95e6 fdbd c2c7 23be
000000e0: 249e a53e bc27 6ebe 68c7 033e 65dc aabd
000000f0: f943 efbd a18d 1bbe 3d0d 353e 1120 62bc
00000100: a378 443e 2174 a9be fdaf 5f3e 2550 663d
00000110: 6dec 363d 88dd 013e 3989 e3bd 8b2b c23d
00000120: 2d81 043e ebf4 2cbe 6bc5 cd3d 9418 ae3e
00000130: 5901 bdbd 4f8d 4b3d daf9 b6be 67e1 c8be
00000140: 1008 09bd 2be7 873e e119 c7be db2c 823c
00000150: 8bd4 78be b188 5e3d 3ec5 55be b14d 2abe
00000160: 26ab 243c 8af6 35be da6e 84be be23 54be
00000170: 7d36 b7be 16eb a2be 500f 073e e213 14be
00000180: 9227 2cbe 701f 86be bfb8 d2bd 953e 3d3d
00000190: 567b d3bd a7a6 81bd 3f0c f93d e05a c8bc
000001a0: eb63 4b3e 414c 47be 26d9 0e3c ea06 573e
000001b0: b8d0 a9bd 2b55 2abc ddb6 ac3d 0bc5 09be
000001c0: 5ef3 3abe 22b8 483d 44d5 4abe 148e a2bc
000001d0: 85c5 01be c92b 233e 86d3 ccbc 31aa 69be
000001e0: e872 d43d 7eb9 35be 8c4f d43c eba3 83be
000001f0: 7ca6 6c3c 7815 86be dbfa 893d 629b cdbd
00000200: 1e8d 16be 028a 02bd 54e7 4abd 68ab 85bd
00000210: 0d2c 2cbe a3e3 543e 7a81 9d3e cb96 763c
00000220: c3af bbbd 3d83 b8be 270f 173d 80b8 0abe
00000230: b870 a0bc ae7c 0a3c e7f5 2c3d 2771 a5bb
00000240: a812 06be 1080 c63d c99d 54bc a689 8c3e
00000250: 467b 43bd 5d1f e53b 558e a9be c76b c5be
00000260: 4851 163e 4683 6dbc a126 31be d6bf 2fbe
00000270: 8c49 8fbe bf57 3fbe 8bbc e4bc 63f3 1c3c
00000280: 0fd9 173c e48a ca3d 99c6 3a3d a6d7 553d
00000290: bba3 8a3d 10fc 513e faf9 f23d 360f 39bd
000002a0: 09d5 ec3d cee1 063d 7020 003e 879e 363e
000002b0: 5ebb a1bd 7e29 183d 799d 40be 4b1e 673d
000002c0: 71f6 02bd e091 383d 9476 2cbe f6f3 743e
000002d0: 1daf 9abd 4471 ebbd 6f6d 24be 759a e3bd
000002e0: 290f d4bd 9ec2 24bd 675a 243d c8a5 1a3e
000002f0: 46fe 9fbc 50ee 2d3c 93eb 17bd 1013 e8bb
00000300: 0ae2 47ba eef1 73be 8070 c33e 44fc 013e
00000310: fe84 bf3d fd1b e1bd 5f26 d23e 6e37 dc3e
00000320: 55f1 2a3e c131 f5bd dbf7 fc3c d808 183f
00000330: d24b 433d bf0b 873e 065f 6bbb 83e2 70be
00000340: ef9b b1bc fd4b 683d 5e2e 8fbe ad13 353e
00000350: 9499 0dbf 8ee9 0c3d 34f3 aebe 4c81 73bd
00000360: fc6f 50bd 53b8 0fbe 5d95 b6be d5d7 0ebe
00000370: 9460 fbbe adf3 f1bd c123 89be 20fe d9be
00000380: 17f2 873d df05 25be 7be4 28be 1607 503d
00000390: 7c0f 723d 0ce2 2f3e 082e af3d fb14 f33e
000003a0: 9694 133e 9ac1 1bbe 1e9a 303c b4f3 533e
000003b0: eac0 26be f663 113d 5ce2 eebd b15e 72be
000003c0: 8427 f0be 4593 b63d ce36 b0be 9396 1c3e
000003d0: fa93 793d 3c4c e23a 05c4 94be 3655 c9be
000003e0: bdd0 803e 3cb3 f1bd ec34 db3d 92d0 4c3d
000003f0: e1c6 00be 6bcc 33be f1c0 c3bd d449 75bd
-0.3613449 -0.25528896 0.4070175 0.17457294 -0.15153709 0.051796094 0.17832807 0.31749904
0.044420034 0.024217365 -0.24129336 0.792625 -0.10946473 0.40706047 -0.07769465 -0.18513788
-0.0524648 0.10339458 0.011810089 0.121067226 -0.6359611 0.2172967 -0.6081132 -0.08436553
-0.18399847 -0.11668502 -0.0057943957 -0.15003288 -0.23545437 -0.2924769 -0.19095826 -0.28707516
-0.18769388 -0.015078102 0.10806908 -0.035746668 0.31905544 0.20489424 0.55358756 0.021100704
0.18389794 0.21634822 -0.084326185 0.107953385 -0.18389745 0.1105423 -0.18866472 -0.12819827
0.13893518 0.07299922 0.06784675 0.47543305 -0.19359271 -0.021122582 -0.12397496 -0.1599417
0.32347214 -0.23257345 0.12869036 -0.08342818 -0.11682887 -0.15190746 0.17680831 -0.013801591
0.19186644 -0.33096412 0.21844478 0.056228776 0.044659067 0.12682164 -0.111101575 0.094809614
0.12939902 -0.16890304 0.1004742 0.34003127 -0.09228773 0.04969531 -0.35737497 -0.39234468
-0.033454955 0.26543555 -0.38886932 0.01589053 -0.24299829 0.054329578 -0.20876023 -0.166312
0.010050571 -0.17769828 -0.25865823 -0.2071676 -0.3578376 -0.3181998 0.13189435 -0.1446071
-0.1681197 -0.2619586 -0.10289144 0.04620226 -0.10326259 -0.063306145 0.12160539 -0.024457395
0.19862334 -0.19462682 0.008718764 0.20998731 -0.08291763 -0.010396282 0.08433316 -0.13454072
-0.182569 0.049003728 -0.19807917 -0.019843139 -0.12673004 0.15934671 -0.025003206 -0.22818829
0.10373479 -0.17746541 0.025916837 -0.25710997 0.01444399 -0.26188254 0.067373 -0.100394025
-0.1470227 -0.031869896 -0.049537018 -0.06526834 -0.16813679 0.20789962 0.30762845 0.0150506
-0.09164383 -0.36037627 0.036879685 -0.13546944 -0.019584998 0.0084525775 0.0422267 -0.005048889
-0.13093054 0.09692395 -0.012977072 0.27448767 -0.047724985 0.006992264 -0.33116403 -0.3855879
0.14679444 -0.01449663 -0.17299892 -0.17163023 -0.279858 -0.18685816 -0.027921936 0.009579512
0.009268059 0.098897725 0.045599554 0.05220761 0.0676951 0.2050631 0.118640855 -0.045180522
0.11564071 0.032930188 0.12512374 0.17833911 -0.078970656 0.037148945 -0.18810071 0.056425374
-0.031973306 0.045060992 -0.16842109 0.23921189 -0.075529315 -0.11496213 -0.1605737 -0.11113445
-0.10354454 -0.040224664 0.040125277 0.15102303 -0.019530427 0.0106159 -0.037089895 -0.0070823506
-0.000762493 -0.23822758 0.38171768 0.12693888 0.09351538 -0.109916665 0.410449 0.4301104
0.16693623 -0.119723804 0.030879905 0.59388494 0.04767973 0.2637615 -0.0035914793 -0.23523907
-0.0216808 0.056713093 -0.27965063 0.17683287 -0.55312467 0.034402423 -0.34169924 -0.05944948
-0.050888047 -0.14035158 -0.3566083 -0.13949521 -0.4909712 -0.118140556 -0.2678509 -0.42576694
0.06637972 -0.16115521 -0.16493408 0.050788008 0.0590968 0.17176074 0.08553702 0.47476944
0.1441215 -0.15210572 0.010778932 0.20698434 -0.16284528 0.03549572 -0.116642684 -0.23668934
-0.46905148 0.08914808 -0.34416813 0.15291815 0.060932137 0.0017265151 -0.290558 -0.39322823
0.25159255 -0.11801764 0.107034534 0.050003596 -0.12575866 -0.17558448 -0.09558285 -0.05988486
