engcovid/best_mpnn_model.pth (torch, 107226 bytes, 23 tensors)

conv1.bias f4 [32]
00000000: d118 563e 1492 8f3e 5ff9 ea3c f39b 15bf
00000010: cd8d 1ebe 4626 3fbe a61a 63be 65a1 2e3d
00000020: 99bd babe fec0 94bc 7ee9 61bd eff7 fc3d
00000030: f15b a23c 62b3 30be a70b 7fbd 5d7c 0dbf
00000040: 9fb4 43be ee7b cdbe ce57 273d 09a2 083e
00000050: 4945 40be 5098 45be 629b 3bbe 646a 1c3f
00000060: da30 cabd 5987 e53d c0b5 aa3d ece6 1d3e
00000070: 1967 87be 15a9 b13e 3904 d4be b239 b8be
0.20907904 0.28041136 0.028683363 -0.58441085 -0.1548378 -0.18666944 -0.22178134 0.042634387
-0.36472777 -0.018158432 -0.055154316 0.12351977 0.019819232 -0.17255929 -0.062266972 -0.5526789
-0.1911187 -0.40133613 0.04085522 0.13343062 -0.1877643 -0.19296384 -0.18320993 0.6109984
-0.09872599 0.11207456 0.08335447 0.15420121 -0.26445845 0.34699312 -0.41409472 -0.35981518

conv1.lin.weight f4 [32, 8]
00000000: 9f90 ba3e 4b97 b2be c100 343f 02c2 4b3e
00000010: b417 af3e e65a 74bd b743 9c3e e2fa aa3e
00000020: 1cc1 e4bd 39f7 ff3e e61f 01be 1b44 063e
00000030: d28d 413e 2028 b6bd 0501 3f3f da6b 2bbe
00000040: 7745 863d 9381 793e e957 203f 2002 dc3d
00000050: 6437 f3be 0945 d73e 6405 5e3f 0abc 40be
00000060: 1ed3 17be 2c85 93be e6ed d6bc e087 a0be
00000070: 07f2 d6be 48a4 d9be b8d6 10bf 03f2 81be
00000080: fc00 0a3f 6064 0cbe f1d9 943d 9d1f 66be
00000090: 4dee c0be 6fc6 a2be d6c0 3ebe 9715 24bf
000000a0: 4d4c 91be ff24 0d3e af9f e6bd a505 6fbe
000000b0: f9be 9abe 9dc8 a7be dd81 86be da0d e4be
000000c0: 1a9d 68be 263d 153d 5842 e2bd 0603 5d3d
000000d0: c20a 06bf 4805 163e 5451 333f 9200 f13e
000000e0: f43d 7abf 7819 42be 9d33 143f d9b4 863e
000000f0: 5862 4cbd 9087 893e b172 e0bb 877d bebd
00000100: ea47 e6be e9b4 fdbd dd4d 6c3e 2995 6b3d
00000110: edb9 973e d330 62bf e611 25bf fcdd cebe
00000120: f746 fcbe 78ba c9bd 097f 07be bab0 db3d
00000130: a65f 66bf 9d63 5dbe a142 88be d56b 96be
00000140: cfe2 a53d 98ae 093f 6e4d b63e 49f4 da3d
00000150: d604 d13d fda9 c8bd cdfe 12be cf95 09bf
00000160: 6530 91bf 3141 f0bd f4f6 713e 2f84 e7be
00000170: c4c1 9dbe f3ba d2be cb77 233e 19d1 e93d
00000180: 9ede 353d 878f 45bc a55d ecbe 47c1 813e
00000190: c788 ab3d 1f49 2b3e b364 28be f387 893f
000001a0: 6f4c e6be a7d9 e0be 6f55 41bf 5d66 b7be
000001b0: b64b 223e e300 33be 9ecc 713e 8632 cebe
000001c0: 3ee3 c0bc 8963 87bd 8c9d 043e 1129 8abd
000001d0: 6b3f 22bf 484d d5be be86 f5be e67d e3be
000001e0: 3786 a0be 834e 97be 1fcd 0b3f 1d6f f4bd
000001f0: 9d25 2d3f ac6c 84be ec70 a13e b0f4 ec3e
00000200: 9116 a73c 77e7 2b3f ab4e b7bd 5c67 1d3e
00000210: 4850 823e 038d 1fbd 1d71 e93e f49d 853e
00000220: 0f95 c83e f604 223e 702f 993e 924f 2d3d
00000230: 5008 d2be 32e2 953e f332 c8bd e72a cbbe
00000240: 73a4 50bc 2053 013f 8774 813e 61f8 3ebd
00000250: 4bd8 05bf 5c84 f6be 6a44 7abe 7930 5cbe
00000260: 62fa a9be 5214 c3be 537e 88be dfbe ca3c
00000270: ab04 383f f52c 0d3f e96c 993e 2ca4 2f3e
00000280: 38e6 88be c758 2d3e efcc 1fbe ff14 33bf
00000290: 09bd 03be 7075 edbe 1272 f1bd 7e5e b53e
000002a0: f916 fd3e acd4 5dbd 7b64 afbe 23ef a4be
000002b0: ed44 853d 9a77 453e 9b77 d9be 5701 24bf
000002c0: 0594 8abe ebbf 353e 28e3 7fbe 9f4a 8c3e
000002d0: afc4 e1bd 13c7 0c3f b200 013f 19e9 a63e
000002e0: 4b6d c3be fad5 7a3e 0f39 37be ffe0 b53e
000002f0: 6e1f 3abd 5311 a6bd 43e2 1dbf 83ec 263f
00000300: 83f6 0d3f 1a1e 30bf 5150 5e3e fbb5 3cbc
00000310: e049 3fbf 6850 87b9 4a1e 1b3d f426 43be
00000320: f483 3bbf 11d7 d23e b08e 233e 7f74 acbe
00000330: d6ed 37bd 0937 05bb 22a5 f73d 2dd7 acbe
00000340: cdfe 06bb 43b5 8cbe 7e90 87bf 6d91 e43d
00000350: 1fba 883e 3f20 36bd 1433 073f d83a 1d3e
00000360: b2aa 5c3e 8e78 0fbe e19c 26be 3838 4d3e
00000370: 9bbc 28bf a929 a1bd 8b60 c7be 55af b4be
00000380: 3673 233e c470 49be 450d 97be fe37 0cbe
00000390: eb6b cfbe f6e3 85be 1aa3 043e 0d5f 13bf
000003a0: fbcf 303d 69f6 443f aa43 aa3e d4ea 913e
000003b0: 1b5d b1bd 5288 53be 584c 46bd 7353 883e
000003c0: 6c6e 24be d7aa b2bd 0fef ec3d bc6a 26be
000003d0: 51c3 9abe 8a10 79bd ed61 0d3f 8951 653f
000003e0: 8a21 073f d15c 903e aa17 13be 2a3a e33d
000003f0: b634 f83c 77a7 9bbe 42aa a73d 861f 8bbd
0.36438462 -0.34881052 0.7031365 0.19898227 0.34197772 -0.059657 0.30520412 0.33394533
-0.11169645 0.49993303 -0.12609825 0.13111918 0.18901756 -0.08894372 0.7461093 -0.16740361
0.06556218 0.24365835 0.6263414 0.10742593 -0.47503197 0.42044857 0.86726975 -0.18821731
-0.14826629 -0.2881254 -0.026236486 -0.31353664 -0.41981527 -0.4250815 -0.56577635 -0.25379953
0.5390775 -0.13710165 0.072681315 -0.22472997 -0.3768181 -0.31792018 -0.18628249 -0.64095443
-0.28378525 0.13783644 -0.11260926 -0.23341997 -0.30223826 -0.32770243 -0.26270953 -0.44541818
-0.2271618 0.03643527 -0.1104781 0.05395796 -0.52360165 0.14650452 0.7004597 0.47070748
-0.9775078 -0.18955028 0.57891256 0.2630985 -0.049898475 0.26861238 -0.00684961 -0.09301286
-0.4497674 -0.123880215 0.23076577 0.057515297 0.29634038 -0.8835575 -0.64480436 -0.40403736
-0.49272892 -0.09850019 -0.13232054 0.10727067 -0.899897 -0.2162003 -0.26613334 -0.29379144
0.08099901 0.53782034 0.3560595 0.10691125 0.102060005 -0.09798048 -0.14355011 -0.53744215
-1.1342894 -0.11731184 0.23629361 -0.45218036 -0.30811894 -0.41158256 0.15963666 0.11416835
0.044401757 -0.012058145 -0.46165195 0.2534277 0.083756976 0.16727112 -0.16444664 1.0744613
-0.4498019 -0.43916056 -0.75520986 -0.35820284 0.15849194 -0.17480807 0.23613212 -0.4027292
-0.023545858 -0.06610782 0.12950724 -0.06746114 -0.6337802 -0.41660523 -0.47954363 -0.4443199
-0.31352398 -0.29552087 0.54609865 -0.11935256 0.6763552 -0.2586416 0.31531465 0.46280432
0.020396503 0.6715006 -0.089505516 0.1537146 0.25451875 -0.03895284 0.4559411 0.2609707
0.39176223 0.15822205 0.29919004 0.042312212 -0.41021967 0.29274136 -0.09775343 -0.3968117
-0.01273452 0.50517464 0.25284216 -0.04662359 -0.5228316 -0.48147857 -0.2444016 -0.21502866
-0.3319884 -0.3810144 -0.26658878 0.024749218 0.7188212 0.55146724 0.29965904 0.1715247
-0.26738143 0.16928397 -0.1560552 -0.6995391 -0.1286508 -0.4637866 -0.11789335 0.35423654
0.4943159 -0.054157898 -0.34256348 -0.32213697 0.06507287 0.19283906 -0.42474064 -0.64064544
-0.27066055 0.17748992 -0.24988997 0.2740068 -0.110238425 0.54991263 0.50391686 0.32599714
-0.3816932 0.24495688 -0.1789286 0.3552322 -0.04544013 -0.08108773 -0.61673373 0.6520464
0.5545427 -0.6879593 0.21710326 -0.011517997 -0.747221 -0.00025809114 0.037870683 -0.19057828
-0.7324822 0.41179708 0.159724 -0.3368263 -0.044904552 -0.0020326993 0.120920435 -0.33757916
-0.002059865 -0.27482042 -1.059097 0.1116055 0.267045 -0.044464346 0.52812314 0.15354478
0.2154949 -0.14010832 -0.16270782 0.20040977 -0.6591279 -0.07869274 -0.38940844 -0.35290018
0.15961918 -0.19671923 -0.2950231 -0.13693234 -0.40512022 -0.26150483 0.12952843 -0.5756691
0.043167096 0.7693849 0.3325475 0.28499472 -0.086603366 -0.20657471 -0.04841265 0.26626167
-0.16057748 -0.08723991 0.11569034 -0.16251653 -0.3022714 -0.06080679 0.5522755 0.8957754
0.5278555 0.28195813 -0.14364496 0.11095078 0.030298572 -0.30401203 0.08186771 -0.06793122

conv2.bias f4 [32]
00000000: 848d 05bf 5b00 8cbe 1fb7 e7be f79d e03d
00000010: 2aad 8abe 4cc8 dd3c 33f5 a2be 18b8 d0be
00000020: cba8 973e 203a 35be d890 58bf 9dca 28be
00000030: 8afe 07be 732a 20be 269c 56bc e0c7 58bd
00000040: 7760 c2bd d4d4 1bbd 5eac b3be 813e edbe
00000050: 757f 1b3e 2194 243e b9c0 0ebd a5c4 0e3e
00000060: d72d a1be d8f5 663b 6ea9 0e3e 08f4 a5bd
00000070: 5609 41bf aec0 cdbe 1f31 a03c 2103 083d
-0.5216906 -0.2734402 -0.45256898 0.109676294 -0.2708524 0.027073048 -0.31827697 -0.40765452
0.29620966 -0.17697954 -0.84596014 -0.16483541 -0.13280693 -0.15641193 -0.013098752 -0.05292499
-0.094910555 -0.038044766 -0.35092443 -0.4633675 0.1518534 0.16072132 -0.034851763 0.13942201
-0.31480286 0.003524175 0.1393182 -0.08103186 -0.7540487 -0.40186065 0.019554673 0.03320611

conv2.lin.weight f4 [32, 32]
00000000: 805a 76bd 18db 803e 2494 3fbe 9170 aebe
00000010: a7d9 35bf 04fc c83e fe11 c03d fd79 4d3f
00000020: bc1d 413e 31d7 1d3d fa6e 893e 9ff5 423e
00000030: ec06 82be 1626 ed3e 9389 8fbe e2b3 64be
00000040: 7cd7 1f3e 68fd 6e3e ff25 273e e330 583d
00000050: 10f9 ae3d 943e b6be fddf eabe f5ac 86be
00000060: 47b5 be3b d226 ae3e 656c f33e efe3 b7be
00000070: c98f a03d b63a b13d 641d cabe 0521 11be
00000080: 69b9 97bc 349d 12bd c74f b13e 3d7c 943e
00000090: 32ec 253e 7e42 5bbd af1b 923e 85ba f3bc
000000a0: dc75 1f3d c4c6 983e 0677 093f 8f0c 80bd
000000b0: e6e0 cabd fddb 193e 8ddf 29be 6113 c93d
000000c0: 270e be3d 4afe df3e 3263 903e aab3 773c
000000d0: 9dba a43d 29d2 be3e 2d52 cfbb 2f46 1cbe
000000e0: 3b16 673e 23b6 15be 653a 05be 9dc3 7ebe
000000f0: 94a8 9e3d f83f babd fd84 b53d 9c9a 0b3e
00000100: d744 0ebf 0f12 c1be bbc1 e9be f5ec 6f3d
00000110: c32b a53e a799 433f 6760 abbe dd06 aa3d
00000120: 5ab1 2d3e dbac a93e c861 a8bc 9b5a 963e
00000130: 8740 46be c584 a3be 04df 2d3f 78bc 08be
00000140: 86e5 b9be 7f6d 153e ba84 193f 3935 5a3d
00000150: 8452 47be 3fa2 87bd 37c9 733d 95b5 15be
00000160: 036e a7bc 08ef 1d3e 1527 4ebd 1694 9cbe
00000170: 87db ecbd 26de 393c cf2d a23d aad2 39bf
00000180: c8ed 10be 576b d73d a6b0 513e efde 5ebe
00000190: ff76 32be f8c8 a53e ad71 253f 4314 2e3e
000001a0: f373 dc3d 4947 993e 50bc 5f3e 23ff 6ebc
000001b0: 80a5 8ebe fd71 293e 0b85 9b3e 2c33 9cbe
000001c0: 6717 893d dc8e 7bbe 2a09 163e cd09 1dbd
000001d0: a96d f73d d5aa 43bd 511c 383e 78d6 1ebf
000001e0: a71c d73e 1ede 7cbe 5d6f 56bc 6ff3 f7bd
000001f0: e01e ef3e 545f ac3d 5be4 af3e a277 6e3d
00000200: b85c a9ba 8d5a 8abe 3fea adbe bfa5 de3e
00000210: ed19 4f3e 0d70 723f 0f40 91be b71a 99be
00000220: ec0f 54bd dbab c13e 9e3d c43d 2ebf d63e
00000230: 2187 b0bd 3434 b9be 121d 3b3f a917 8b3e
00000240: 5196 4fbe 2ddb 313e 1948 ce3e e9ba e23e
00000250: 0bf4 113e c1e8 5d3d 8fc3 83be 40dc 93be
00000260: c2f5 02be 1cf8 89bd 1100 46be 70f3 d83d
00000270: b030 303d 8c66 59bd 0afb 5cbd ef94 0dbf
00000280: 9b0e b3bd 6cd2 66bc c5af 313e 0a2a 55be
00000290: 6562 e6be bb43 19be 6dc3 ca3e 7495 a63e
000002a0: 1cc6 083f e9b8 d63d c39a b73e 34fe e1bb
000002b0: 44b5 f9be 224c b43e c095 ec3b 35ac 083e
000002c0: e93b a0be 13d9 cc3e 1346 393d 7fdb b8be
000002d0: 9ed2 dfbe 646a c8be 6bfe 7cbc c07c 00bf
000002e0: 0737 393d b944 973e 5e61 14be 5dc9 05bf
000002f0: 5053 1ebf f95f 15be 4a12 79bd 3855 f2be
00000300: 8743 f83e 4543 e7bc b0dd 41bd b96f 243e
00000310: 5963 89bc b59f 8bbc f6da 7a3e 73fb 883e
00000320: f82d 933d a98b 61be 5d80 2e3e e46e 74bd
00000330: c73e e73d c518 c33e 0e94 71be 628a 403f
00000340: f5c5 f23e eac7 ed3e 2e0e 123e fdb4 e03e
00000350: 0c41 b7be da08 563d dfb9 ec3e 80d8 c43d
00000360: b2d7 4b3e 7b0e 9c3e 2869 7e3e a83c f13c
00000370: ed19 8f3e 3990 aabe f08e d73e d8e3 7abe
00000380: 9bda e2be 484d c53d 4354 ecbd b826 173e
00000390: efed cabd ded5 4f3e b128 283e e36f 8dbd
000003a0: e7d4 863e c165 8b3e e1ca 643e d943 00be
000003b0: 7489 fcbe 0923 163e a60c e13e da18 97be
000003c0: 1e90 5ebd 274a 6bbe 5a89 bb3d 102c 3fbe
000003d0: 17b5 fb3e f06e e53d 3ac3 f5be b105 88be
000003e0: 5991 653d 9b61 863d 2618 903b fddf 9a3e
000003f0: 10a3 1abe aec2 863c 029c 6fbe 5e79 b2be
-0.0601449 0.25167155 -0.18708855 -0.34070256 -0.71035236 0.39254773 0.09378432 0.80264264
0.18858999 0.0385353 0.2684248 0.1903901 -0.25395906 0.4631812 -0.28034648 -0.22334245
0.15609545 0.23338854 0.16323088 0.052780997 0.08543599 -0.35594618 -0.45874014 -0.2630383
0.00581995 0.34013993 0.47543636 -0.35916087 0.07839925 0.08653776 -0.39475548 -0.14172752
-0.018521028 -0.03579445 0.34631178 0.29001036 0.16203383 -0.05353021 0.28536746 -0.029752025
0.03893076 0.29839146 0.5369724 -0.06252395 -0.09906177 0.15025325 -0.16589184 0.09818149
0.09280043 0.43748695 0.2820068 0.015118519 0.08043406 0.37269714 -0.006326935 -0.15261148
0.22567074 -0.14620261 -0.13010557 -0.24879308 0.077469975 -0.09094232 0.08863256 0.13633198
-0.5557379 -0.3770909 -0.45655617 0.05857559 0.3225995 0.7640633 -0.33471987 0.0830209
0.16962186 0.3313969 -0.020554438 0.29366 -0.19360553 -0.31937233 0.6791842 -0.13353145
-0.36307925 0.1459255 0.5996815 0.053273413 -0.19465071 -0.06622743 0.059518065 -0.1462005
-0.0204382 0.15423214 -0.05033024 -0.3058173 -0.11565309 0.011344468 0.079188935 -0.7258707
-0.14153206 0.1051852 0.20477542 -0.2176473 -0.17428206 0.3237989 0.6462658 0.16999917
0.10764303 0.299372 0.2184918 -0.0145871965 -0.2786064 0.1654739 0.3037494 -0.3050779
0.06693917 -0.24566215 0.14651933 -0.038339425 0.12081463 -0.04777034 0.17979552 -0.62046003
0.42014048 -0.24694106 -0.0130880745 -0.12106978 0.46703243 0.0841662 0.3435391 0.05821956
-0.0012921309 -0.2702221 -0.33967778 0.4348583 0.20224734 0.94702226 -0.28369185 -0.29903194
-0.051772997 0.37826428 0.09582065 0.41942734 -0.08619524 -0.3617264 0.7309123 0.2716649
-0.20272185 0.17368765 0.4028938 0.44283226 0.14253251 0.05417705 -0.25735137 -0.28878975
-0.12789062 -0.06736776 -0.19335963 0.10593307 0.043015182 -0.053076312 -0.053950347 -0.5530538
-0.0874302 -0.014088254 0.17352207 -0.20816818 -0.44996944 -0.14967243 0.39602223 0.325359
0.5342729 0.104844876 0.3586026 -0.0068967585 -0.48771107 0.35214335 0.00722 0.13346942
-0.31295708 0.40009364 0.045232844 -0.36104962 -0.43715376 -0.3914367 -0.015441517 -0.50190353
0.045218494 0.2954462 -0.14490268 -0.5226038 -0.61845875 -0.14587392 -0.060808457 -0.47330642
0.4848902 -0.028230319 -0.04733056 0.16058244 -0.016771005 -0.017043928 0.2449759 0.2675434
0.07186502 -0.22025932 0.17041154 -0.059676066 0.11291271 0.38104835 -0.23591635 0.75211155
0.47416654 0.46441585 0.14263222 0.43888083 -0.35791814 0.052254535 0.46235558 0.096116066
0.199065 0.30479798 0.24844801 0.029447868 0.27949467 -0.33313158 0.4210124 -0.24500978
-0.44307408 0.09633881 -0.11539509 0.14760864 -0.099086635 0.20296428 0.16421773 -0.06906106
0.26334307 0.2722607 0.22343017 -0.12525882 -0.49323618 0.14661802 0.43954962 -0.29511148
-0.05433666 -0.22977506 0.09157057 -0.18669152 0.49161598 0.112028 -0.4800051 -0.26566842
0.056046817 0.065615855 0.00439741 0.30249014 -0.15101266 0.016450252 -0.23399356 -0.3485822

bn1.weight f4 [32]
00000000: b99d 673f 775b 2d3f bfb7 8e3f 1f12 923f
00000010: 40a5 a03f 4601 973f 757a 9d3f 27bc 983f
00000020: 83c3 933f 9532 973f 68ae 4d3f 0d07 6d3f
00000030: 459c 663f 9a32 ab3f ac32 893f bda5 843f
00000040: bc2c 343f b811 2e3f f3be 8a3f cad7 823f
00000050: 8585 923f 003d 6e3f 4d67 623f ccb7 b53f
00000060: 5bd0 753f 45d3 803f 0984 9f3f 9f5d 813f
00000070: a79e 7f3f 67e4 3b3f fd62 943f 23d8 723f
0.9047504 0.6771769 1.1149825 1.141178 1.255043 1.1797264 1.2302996 1.193242
1.154404 1.1812311 0.8034425 0.92588884 0.900822 1.3374817 1.0718589 1.0363079
0.7038076 0.67995787 1.0839523 1.0222104 1.1446997 0.9306183 0.88438874 1.4196715
0.9602105 1.0064474 1.2462169 1.0106696 0.9985146 0.7339539 1.1592709 0.9486105

bn1.bias f4 [32]
00000000: e610 9d3d d7a4 d33d f01a e53b 2cc1 453e
00000010: 716d 533e 1582 2a3e 739f e8bd 102c a3be
00000020: ae7f e53d 6d79 733e 8e13 d63d f046 aa3e
00000030: f387 90be 9698 9f3e 5d85 a33e f401 52be
00000040: 07dd 043e d288 6b3d 8456 883e 3987 bebe
00000050: b684 c33e 6a22 a43e 7f35 95be 8bb5 0fbe
00000060: d226 4e3e e031 953e 52ff c7bd 6db5 3e3e
00000070: 2ac7 a73e 77f4 763d b615 42be f621 8c3e
0.07669239 0.10334175 0.0069917366 0.1931197 0.20647217 0.16651185 -0.113585375 -0.31869555
0.112059936 0.23776789 0.104529485 0.33257246 -0.2822872 0.311711 0.31937686 -0.20508558
0.1297494 0.05750353 0.26628506 -0.37212542 0.38187188 0.32057506 -0.29142377 -0.14034097
0.20131996 0.29139614 -0.09765495 0.18623896 0.32769138 0.060291734 -0.18953595 0.2736966

bn1.running_mean f4 [32]
00000000: 028c 6d3f 5d23 3e3f 410d 603f 8fc8 df3d
00000010: 5add 703e 9ff2 153e 04a1 653e d5ea 923e
00000020: fadf 313e 7c7d 673e 0ab8 d53e ab89 7d3e
00000030: 7a6a 063f 6a98 203e 112b 803e 005e 833e
00000040: de76 293f c010 283e df79 ac3e 4eeb f23e
00000050: 6a9b 133e 1603 3b3e d05f e63e b93a 223f
00000060: 50ed 713e 5c61 663e b379 8d3e 1be9 8e3e
00000070: 0d5e 023e ec7a 843f d90e 8f3e 0c4c 473e
0.9279176 0.7427271 0.87520224 0.109269254 0.23521939 0.14643334 0.22424704 0.28694788
0.17370597 0.22606462 0.41741973 0.24759547 0.5250622 0.15683141 0.25032857 0.25657654
0.66197 0.1641264 0.3368673 0.47445148 0.14414755 0.18262896 0.44994974 0.63370854
0.23625684 0.22498077 0.27631912 0.2791222 0.1273119 1.0350013 0.27941015 0.19462603

bn1.running_var f4 [32]
00000000: cdaa 213f 7c2e e93e d291 3a3f 7c92 993d
00000010: 98d1 173e 1f2c a53d b278 383e 314f 483e
00000020: 962b e73d 6e04 233e 5a13 663e 3a85 313e
00000030: 4984 e63e e389 d83d 647c 213e 47bc 613e
00000040: dbf7 e93e b1ae bb3d d439 263e 27c1 cb3e
00000050: 7417 963d 2d1c e13d 603b a93e 067e a43e
00000060: fcc9 133e eeb7 e53d 11f4 3e3e adc1 123e
00000070: 9a41 823d b51a 1a3f a512 863e de27 d93d
0.63151246 0.45543277 0.72878754 0.07498643 0.14826047 0.08065056 0.18014792 0.19561459
0.1128761 0.15919659 0.2246832 0.17335978 0.450228 0.10573175 0.15770108 0.22044478
0.4569691 0.09164179 0.16232997 0.397958 0.07328692 0.10991702 0.33053112 0.32127398
0.1443252 0.112167224 0.18647791 0.14331694 0.06360169 0.60197 0.261861 0.10603307

bn2.weight f4 [32]
00000000: 9d26 473f 1a3a 133f 812c 6d3f ed02 df3e
00000010: d721 7e3f 86da dd3e 85b2 863e d890 b63e
00000020: 3866 f73e fabe 193f 0862 383f b318 053f
00000030: 9f49 3d3f 1bcf 0b3f 129f fe3e 6e6c 293f
00000040: f749 4a3f d6ce 5f3f fbc2 2b3f de07 303f
00000050: b5df 063f 4a27 c03e 3fb9 323f 78b2 233f
00000060: 9bf7 0b3f b717 473f 4352 0c3f 50f3 383f
00000070: a912 353f d5c7 583f a9f8 193f abc0 313f
0.77793294 0.5751053 0.9264603 0.4355692 0.99270386 0.43330783 0.26308075 0.35657382
0.48320174 0.6005703 0.72024584 0.51990813 0.7394046 0.5461289 0.49730736 0.66181076
0.7901911 0.8742498 0.6709439 0.68762004 0.526851 0.37529975 0.69813913 0.63944197
0.5467469 0.7777056 0.5481302 0.72246265 0.707316 0.8467992 0.6014505 0.69434613

bn2.bias f4 [32]
00000000: f84e 3fbe e2ee bf3d 6788 4e3e d37b 403d
00000010: 81d9 503e 4cff d2bc b215 a5be 032f 733e
00000020: 5ac9 c53d 226c e33d cdb6 d2bd 5264 513d
00000030: ac18 503e 8414 19be f787 163e c8e5 6ebd
00000040: 93d4 4b3e 4f23 dd3d 39d3 133e 5b0d ad3e
00000050: 05a0 b13d 62d4 473e 7f47 65bd f869 4d3d
00000060: aa21 c8bd f51c 633e bb9b b33d 1b99 a43d
00000070: 2a8e 1abe 8f58 6a3e 0e67 78be 2929 8fbd
-0.18682468 0.09371735 0.20169221 0.046993088 0.20395471 -0.0257565 -0.32243115 0.23748402
0.096575454 0.11104609 -0.10288773 0.051121064 0.20321912 -0.14949232 0.14700304 -0.058324605
0.1990531 0.1079775 0.14436044 0.33799252 0.086730994 0.19514611 -0.055976387 0.050149888
-0.09772046 0.22179015 0.087699376 0.08037015 -0.15093294 0.22885345 -0.24258062 -0.069902726

bn2.running_mean f4 [32]
00000000: f72d 243f 9570 253f 8edc 933f 4cc9 803f
00000010: 2cea ac3f 2a20 3a3f 12b4 283f 3ca4 a03f
00000020: bb40 8c3f 7b6f 123f ed52 113f 4738 003f
00000030: cb8f d63f eb37 0c3f 262c 973f 08dc 4a3f
00000040: d43c d53f 3616 c53f 5486 9d3f c559 be3f
00000050: d727 ae3f ac33 6d3f 8b50 6e3f cc84 8a3f
00000060: 7645 2a3f 347d a33f b19b 803f 78a7 a03f
00000070: 41a3 fb3e 5911 a93f 96cd 693f 472c 3f3f
0.64132637 0.6462491 1.1551683 1.0061431 1.3508964 0.7270533 0.65899765 1.255012
1.0957254 0.57201356 0.5676716 0.5008587 1.6762632 0.54772824 1.1810348 0.7924199
1.6659188 1.5397403 1.2306619 1.4871145 1.3605908 0.9265697 0.9309165 1.0821776
0.6651224 1.2772584 1.0047513 1.2551107 0.4914799 1.3208419 0.91329324 0.74676937

bn2.running_var f4 [32]
00000000: 90d7 e93f d2da a33f 5646 ba40 74de 1840
00000010: 90c3 0941 2bc5 ce3f 4553 3640 db0e 8540
00000020: 1234 d23f 33ff c53f d4dd 0e40 53ce de3f
00000030: 47d5 e740 6feb 873f 2a43 6940 4b12 ca3f
00000040: 15f0 1b41 84c4 b040 c6dd f940 4217 9740
00000050: 1c31 0640 f927 1740 1313 c03f c96a 0e40
00000060: 9cc2 f83f 998e b540 9a8d ef3f 1207 9d40
00000070: 602d c63f 4585 e640 ef5d 0240 f974 0c40
1.826891 1.2801154 5.821086 2.3885775 8.610245 1.6153921 2.8488324 4.1580634
1.6422141 1.5468506 2.2322893 1.7406715 7.244785 1.0618724 3.6447244 1.5786833
9.746114 5.5239887 7.808322 4.721589 2.0967474 2.3618147 1.5005821 2.2252676
1.943439 5.673657 1.8715088 4.907113 1.5482597 7.2037683 2.0369833 2.1946394

rnn1.weight_ih_l0 f4 [128, 64]
00000000: ffd6 acbe efca 09be 8912 003e f1e7 543d
00000010: b0b8 4abe c162 c5bc 8059 dfbc 4cf3 103f
00000020: 18d7 3c3e dceb c13d 7b4d c23c 0927 f03d
00000030: b3b3 3d3e c005 c43c 923a 4d3d 3804 89be
00000040: 369e c8be 58eb 813d e8b1 9dbe 4c42 ddbc
00000050: 3d28 fabd cdd3 ddbd edd7 a03e 2edb 87bc
00000060: dbec 22bd 4464 32be 30e8 a33d 8bdb 46bd
00000070: bac6 543d 716b 61be 04a8 15be 6cd3 43be
00000080: ad94 263e 19a1 483e ab85 063e b823 3f3e
00000090: 82b2 303d 054e 323c ba2c 0d3e 99cd 4fbe
000000a0: 0d4a 03be d597 6dbe 1486 343e 0c4f 82bd
000000b0: df72 b9bd 4ed1 c43e 7bce d43d fc13 413e
000000c0: 4603 82bd c815 82bd c3a5 0e3d eb9f 69be
000000d0: 8735 403e 3454 d3bd 64f3 1239 ebb7 cb3d
000000e0: 6c92 1e3e b40c cdbd 6568 78bd 74fe a7bc
000000f0: d59f b5be 23c2 88be 0fe6 a6be b828 813d
00000100: aab2 65bd 15de d93d 7590 723e a620 90be
00000110: 99fc 05be de4d 04bf aa0e f33c ba21 173f
00000120: 6161 553d 9b38 fdbd 0724 a23d 9704 813d
00000130: 9966 b03e 6f51 26be a169 1c3d 44b5 c33e
00000140: 5638 86bd 676c 15bc c893 c9bd cedc 073e
00000150: daef 53bf 6d3e 74be 23ca d03b e99a 053f
00000160: 9b2b 9e3e d611 4e3e c965 cfbe 1e58 54bd
00000170: 9dac 3dbf 04ea 673e 2e6a 3a3e ba34 c6be
00000180: dcfb d03e e473 1cbd 6185 19be 1ea2 fe3d
00000190: 61ef bcbe 8eb9 813e 7167 e93d 3cab 85be
000001a0: 4e24 db3e d90c 6fbc f784 483e 9ebe f43e
000001b0: 3085 30be afbf 8b3e ff69 a43d 54c1 c63e
000001c0: d894 58be 3505 86be 2cd3 19be eabd 41bc
000001d0: 6646 21bd 2517 29be 4159 d03e 597a d5bd
000001e0: 3690 423e f9a5 93be be26 403e a079 ae3e
000001f0: b639 d2be 8111 2cbd 3018 1c3e a370 91bd
00000200: bbbd 8dbe 7210 2b3d 73fa 6b3f 0e17 c43d
00000210: 6582 d53e f421 af3c 4936 303f da57 c83e
00000220: 731c a83e edba 3c3e 738a 33be 7e33 743e
00000230: 4889 8c3e 20a6 4f3e 96ab 12be f2d4 f53e
00000240: 877b 0a3e f8e0 fa3d ee1f dc3d 87dc d83d
00000250: 89ad 843e bfde 1cbe c30c 1d3f 339a a4be
00000260: 8dbe 1a3f 3410 c63d 0fde 123f 4732 c23e
00000270: 958e 023e 913b 3a3e 337e 1a3f bac4 60be
00000280: 8f94 313d ad94 283e 4691 863b ada6 9d3e
00000290: ca61 b0bd dd40 d63d e703 713e c90b c1be
000002a0: 11b0 00bf 5baa a4be bd23 3c3f 6b87 8f3e
000002b0: 7ee5 0d3e aa48 833e 0a32 3a3e 6c17 74be
000002c0: 0e6b 7c3e fa84 b63e 5337 853e f7f8 873d
000002d0: e706 e43d b922 de3d 6e94 dabd 7f7e 42be
000002e0: 888b 8fbd 10ca 6f3e a0a7 613c 5314 d43e
000002f0: 10eb 0f3e c1e2 583e d16d cb3e e040 de3e
00000300: 5bf2 81bd c8f0 a73e e142 a73e 3fd7 4cbe
00000310: 808e 04be 2d8e 08be 7135 873e dce8 c9bc
00000320: 6406 fdbd ca2a 36be 294e 1abd 2e06 6fbd
00000330: fedc be3c ba11 c8be 15b7 d7be 524f 79bd
00000340: 4bc5 22be 7862 83be bc13 9bbe a1e3 803e
00000350: 2a9c f9be ef80 96bd 7dbb bb3e 99ef 9bbe
00000360: 4b23 febe 1b07 99bc 3203 6cbe 85f8 00bf
00000370: cbc5 cdbe 06a7 ee3d 1cb0 7c3e e6e0 d3be
00000380: 7f73 84bd 8c8e da3e 9d37 90be e4fb b23e
00000390: 70dc 82be d2fe 44bd e840 9abc ac43 23be
000003a0: 53c4 713e 2688 2abe ca01 a63d bc86 2d3d
000003b0: 3cc0 f2bb 28ec 1c3e 33af b03e 344e 77bd
000003c0: bf59 51bc cf27 043e 9149 503c 1dbf 73be
000003d0: e5b7 c63d 3df3 c6bd 7cea 543e 1098 fabd
000003e0: 6bba 9f3e 4274 4fbe b795 c83e 7606 0e3e
000003f0: d335 14be e1ae 003c c966 b2bd 5515 4b3e
-0.3375778 -0.1345632 0.1250707 0.05197901 -0.19797015 -0.024094941 -0.027264357 0.5662124
0.18441427 0.09468815 0.023718586 0.11726195 0.18525581 0.023928523 0.050104685 -0.2676103
-0.39183205 0.063437164 -0.30799794 -0.027009152 -0.12214706 -0.108314134 0.31414738 -0.016584005
-0.039776664 -0.17421061 0.080032706 -0.048549216 0.051947333 -0.22013642 -0.14614874 -0.1912362
0.16267653 0.19592704 0.13136928 0.1866597 0.04313899 0.010882859 0.13786593 -0.20293273
-0.12821217 -0.2320245 0.17629272 -0.06362733 -0.09055113 0.38440937 0.103909455 0.1885528
-0.063482806 -0.06351811 0.03482605 -0.2281491 0.18770419 -0.10318795 0.00014014315 0.09947189
0.15485543 -0.100121886 -0.060646433 -0.020507075 -0.35473505 -0.26710615 -0.32597396 0.063065946
-0.05607859 0.10638062 0.23687918 -0.2814991 -0.1308464 -0.51681316 0.029670078 0.5903584
0.05209482 -0.12364312 0.07917028 0.062997036 0.34453276 -0.16242002 0.038186673 0.38224232
-0.06553714 -0.009120083 -0.0984264 0.13267824 -0.8278786 -0.23851939 0.006371753 0.521895
0.30892643 0.20123991 -0.40507343 -0.051841848 -0.7409151 0.22647864 0.18204567 -0.38712102
0.40817153 -0.03819646 -0.14992286 0.12433265 -0.36901382 0.2533688 0.11396683 -0.26107204
0.42801136 -0.014590465 0.19581972 0.4780168 -0.17238307 0.2729468 0.0802803 0.38819373
-0.2115053 -0.26175848 -0.15021962 -0.011825064 -0.039373778 -0.16512735 0.40693095 -0.104237266
0.19000325 -0.28837565 0.18764779 0.34077168 -0.41059655 -0.04200888 0.15243602 -0.07101562
-0.27683815 0.04176373 0.9217903 0.0957471 0.41701046 0.021378495 0.6883283 0.39129525
0.32834205 0.18430682 -0.17533283 0.23847768 0.27448487 0.20278215 -0.14323267 0.48014027
0.13523684 0.12249941 0.107482776 0.10588937 0.25913647 -0.15319346 0.613476 -0.32148895
0.6044701 0.09671059 0.57370085 0.37928984 0.12749703 0.18186785 0.60348815 -0.21950045
0.043354567 0.16462965 0.0041066734 0.30791226 -0.08612402 0.104615904 0.23536645 -0.37704304
-0.50268656 -0.3216122 0.7349203 0.28033003 0.13857076 0.25641376 0.18183151 -0.2383706
0.24650213 0.35648328 0.26018772 0.06639283 0.11134129 0.108464666 -0.10672842 -0.18993567
-0.07009035 0.23416924 0.013772875 0.41421756 0.14054513 0.2118025 0.3973222 0.4340887
-0.06345054 0.3280089 0.32668212 -0.20003985 -0.12944984 -0.13335486 0.2640796 -0.024647169
-0.123547345 -0.1778976 -0.037672196 -0.058355503 0.023298737 -0.39076024 -0.42131868 -0.06086666
-0.15895574 -0.25661063 -0.30288494 0.25173667 -0.48751956 -0.07348811 0.3666648 -0.30456236
-0.496363 -0.018680146 -0.23048094 -0.5037921 -0.40189967 0.11652951 0.24676555 -0.4138252
-0.06467342 0.4268688 -0.2816743 0.34957802 -0.25558805 -0.048094578 -0.018829778 -0.15943784
0.23610048 -0.16653499 0.0810581 0.04236482 -0.00740817 0.15324461 0.34508666 -0.060377315
-0.012777745 0.12905811 0.012712852 -0.23803373 0.09703044 -0.09714363 0.20792574 -0.12236035
0.31196913 -0.20259193 0.39176723 0.13869652 -0.14473657 0.007854194 -0.08711011 0.19832356

rnn1.weight_hh_l0 f4 [128, 32]
00000000: b80f eb3c d1b0 1f3e 9017 ca3c 60d4 063c
00000010: 789f 52bd 1cb4 183d 313d 34be 209b 34be
00000020: 00dd a7bc 4c1b fbbd ee6f fbbd 70ce f5bc
00000030: 4edd c83d f22d b33d 0092 7bbd b0ac 4cbc
00000040: 010c 283e 08a2 1c3d 3233 f63d 4df5 95bd
00000050: 99fd 21be 11db a7bd a087 7e3c f05e 2fbd
00000060: eead c5bd 1513 2e3e 3516 27be 0013 933b
00000070: 7047 903d 5c58 43bd 3605 9d3d 007f 243a
00000080: 0b35 d7bd 21dc c4bd 42dd a2bd 89be 30be
00000090: eea4 e13d 35ee 253e 24fa b9bd 3028 0f3c
000000a0: 18f4 713d 3004 4d3d 06f3 c8bd 6a00 dcbd
000000b0: 9336 303e bad2 d23d 2738 293e b225 fe3d
000000c0: 507f 57bc 5ae0 fe3d 20cb b9bb 00c2 8fba
000000d0: a2dd 9cbd 432b 0d3e 64f0 19bd 8841 d23c
000000e0: 3058 10be 8462 783d dc22 acbd 0c81 23bd
000000f0: 287f 81bc 0437 863d a074 ec3b d054 fc3c
00000100: 0026 ebbd dcc6 08be 0662 823d 8814 95bd
00000110: 8a11 1cbe e769 95bd 9a96 31be 78ac 103d
00000120: 8019 573c 5f29 273e dba3 c7bd c23c bbbd
00000130: b4e4 2c3d a042 3ebd d711 0d3e 104d dc3c
00000140: 00bb 7bbb 81e5 8abd 3abf da3d 3478 a9bd
00000150: e494 913d 8e93 e83d 37fe 0dbe af63 20be
00000160: 602b ccbd ceb7 ad3d b4b2 c7bd 00e4 883c
00000170: 10a7 da3c c003 183d 6a9d b8bd e08a ca3b
00000180: 12df fa3d 1eab bb3d 2453 0a3d d0f5 0fbe
00000190: 5e54 aa3d 2429 90bd a65f fd3d d65c 963d
000001a0: a0e8 04bd 20f4 8b3d 868c 96bd b8f5 f93c
000001b0: 4084 10bc 00d7 373b 90f4 7e3d 3d4a 303e
000001c0: 11cd 9fbd e5c4 303e f8df 04bd 4b2b 2c3e
000001d0: 0cf1 223d 6030 6c3c 3428 72bd 50c7 bebd
000001e0: 5704 32be 4c9e c5bd 88a8 81bc b349 183e
000001f0: 86ea c33d 407e fc3c 6431 2fbe 5a0f ff3d
00000200: 2641 f93d cdbf a2bd 32a2 923d d9d2 16be
00000210: 070b b7bd c082 5abd b622 24be b0ef 30bc
00000220: f446 143d fcc2 523d 4567 293e 2a16 d13d
00000230: fc9f 25be 3847 63bd 56d4 ca3d 5dbe 2dbe
00000240: 401f 33bc 62fe 883d 2ac2 f2bd 7947 1b3e
00000250: ccae eebd 62ca 04be 0f69 09be 70aa fdbc
00000260: 3ccc 713d 0892 503d 50e2 b2bd 2d53 1e3e
00000270: ca03 c2bd 9909 0e3e 2838 733d 12a3 69bd
00000280: 37e1 053e 2816 703d b1ea 19be 5200 b83d
00000290: 7f32 2b3e 5e68 07be 18a7 18bd cd12 12be
000002a0: beb9 f23d f214 c03d a907 043e 3c5e 4b3d
000002b0: e8cb eebc 804d 8dbc bbdf 06be 86c1 e53d
000002c0: e13e 91bd 88ee 9e3c c000 c53b e8e3 5a3d
000002d0: 216a 11be 7060 e5bc 1206 a73d 6bcd 05be
000002e0: eb86 9bbd 975a c7bd a229 19be f7bc 303e
000002f0: e365 1c3e e6dd e23d 980b 16be 0078 d3ba
00000300: 74f7 043d 1298 a03d b4d6 113d f2e8 ddbd
00000310: 60aa b73b 6961 12be b28e b53d 720b e43d
00000320: be8a 81bd 6273 1ebe 006e d73a be15 b93d
00000330: 6806 f7bd b2d8 983d be24 fc3d 1c0f 16be
00000340: f237 c83d 32bb a33d 1950 babd 51ed 173e
00000350: 231b aebd c195 093e 07c1 0abe 23c8 0e3e
00000360: e0cd 22bd 43e7 1fbe cad7 c03d f03a 6dbc
00000370: 1083 4c3d bac7 a63d 509f 9a3c 3044 673d
00000380: 1a93 18be d1c5 1fbe 8502 aabd 3849 bdbd
00000390: 48a0 2abe 681b e23c d0cb 65bc f076 1fbd
000003a0: 9096 06bc d2f9 ad3d c657 86bd c0f9 363c
000003b0: 205b 81bc 86d3 ae3d 680f 9abc fc0c 823d
000003c0: 9cc0 8dbd ad39 0c3e 30be f33c 489e f33c
000003d0: 3248 af3d 8772 34be f6f9 9f3d 656c 113e
000003e0: d6d2 d83d 0218 eb3d d467 11be 17ae 1c3e
000003f0: c0e3 213d ad70 30be 3bcd 233e df27 0d3e
0.028694019 0.15594794 0.024669439 0.008229345 -0.051421613 0.03728114 -0.17601468 -0.176373
-0.020491123 -0.12261066 -0.12277208 -0.030005664 0.098078355 0.08748998 -0.061418533 -0.012492344
0.16410829 0.038240463 0.120214835 -0.07322178 -0.15819396 -0.081960805 0.015535265 -0.04281515
-0.09652315 0.16999467 -0.16317065 0.004488349 0.070448756 -0.047691688 0.076670095 0.0006275028
-0.10508164 -0.09612299 -0.07952358 -0.17260183 0.11017786 0.1620415 -0.09080914 0.008737609
0.059070677 0.05005282 -0.09811978 -0.107422665 0.17208318 0.10294099 0.16525327 0.124095336
-0.013152912 0.124451354 -0.0056699663 -0.0010967851 -0.076594606 0.13786034 -0.03758277 0.025666013
-0.14096141 0.060640827 -0.084050864 -0.03991799 -0.015807703 0.06553462 0.007216051 0.03080216
-0.11481857 -0.13357109 0.06366353 -0.07279307 -0.15241066 -0.0729559 -0.17342606 0.03532073
0.013128638 0.16324376 -0.0974805 -0.09142448 0.042210296 -0.046450257 0.13776337 0.026892215
-0.0038411021 -0.06782056 0.10681005 -0.0827488 0.07108477 0.11356269 -0.13866507 -0.15663026
-0.099692106 0.084823236 -0.09750882 0.016710281 0.02669099 0.03711295 -0.09014399 0.006181106
0.122495785 0.091634974 0.033770695 -0.14058614 0.08316873 -0.07039097 0.12371759 0.07341926
-0.03244841 0.068336725 -0.073510215 0.030512676 -0.008820593 0.0028051734 0.06224495 0.1721582
-0.07802785 0.1726261 -0.032440156 0.1681339 0.03978066 0.01441583 -0.059120372 -0.093153596
-0.17384468 -0.09649333 -0.015827432 0.14871864 0.09566216 0.03082192 -0.17108685 0.124541
0.12170629 -0.07946739 0.071598426 -0.1472887 -0.0893765 -0.05334735 -0.16028866 -0.010799333
0.03620048 0.051455483 0.165433 0.102093056 -0.1617431 -0.05548784 0.09903781 -0.16967149
-0.010932744 0.06689145 -0.1185344 0.15163983 -0.116544336 -0.12967828 -0.13418983 -0.03096506
0.059032664 0.050920516 -0.08734572 0.15461417 -0.09473379 0.13870849 0.059379727 -0.05704028
0.13074194 0.05861488 -0.15030934 0.08984436 0.16718481 -0.13223407 -0.037268728 -0.14264984
0.11851834 0.09378995 0.12893547 0.049650416 -0.029149964 -0.017248869 -0.13171284 0.11218552
-0.07092071 0.01940085 0.0060120523 0.053440005 -0.14200641 -0.028000087 0.08155455 -0.13066642
-0.07594093 -0.097340755 -0.14957288 0.17259584 0.15273242 0.1107748 -0.1465286 -0.0016133785
0.032462552 0.07841505 0.035605147 -0.108354464 0.005605027 -0.14294972 0.088651076 0.111349955
-0.06325291 -0.15473703 0.0016435981 0.0903735 -0.12061769 0.07463206 0.123116955 -0.14654201
0.09776296 0.07994689 -0.09097309 0.14836623 -0.0850127 0.13436033 -0.13550197 0.13943534
-0.03974712 -0.15615563 0.094161585 -0.014479384 0.04992968 0.081435636 0.018874794 0.056461513
-0.14899865 -0.15602805 -0.08301262 -0.09242481 -0.16662705 0.027600959 -0.0140256435 -0.038931787
-0.008214608 0.08494915 -0.0655971 0.0111679435 -0.015790522 0.08536439 -0.018806174 0.06350133
-0.06921503 0.13693877 0.029753774 0.02973856 0.08558692 -0.17621814 0.07811348 0.14201505
0.10587089 0.114791885 -0.14199764 0.15300785 0.03952384 -0.17230482 0.15996258 0.13784741

rnn1.bias_ih_l0 f4 [128]
00000000: cc84 12bf 1194 c8be 2048 c5be 057e a2be
00000010: 5927 c4be 3abd 16bd 371b ddbe 06e2 0bbf
00000020: 1498 acbe ca2a 33bf 00a2 e2be bc89 06bf
00000030: 0790 2fbf 9ce7 01bf 4267 94be 05a9 9fbd
00000040: 5ab5 30bf 3aa0 7abe 05ef 68be 00f7 e0be
00000050: 6865 15bf 4435 28be 9548 acbd 3910 d6be
00000060: da80 64be 8005 7cbe 98e0 ecbe 2e0e f8be
00000070: 5346 01bf 9230 fcbe e0ea 24bf acb3 24bd
00000080: 601a 5b3d 4010 aebb b0b9 bebd acb0 2cbd
00000090: 54cb 50bd 0d93 193e 301f 20be 201a 503d
000000a0: e50b 243e 4058 603d bd23 c0bd d4f7 543d
000000b0: e258 913d 02e2 9b3d 10f0 6f3c 188f 1ebe
000000c0: c820 223d c018 18bd 56a6 c03d 6524 223e
000000d0: 7391 81bd c0f6 443b a767 143e 30ff f7bc
000000e0: b810 db3c ba6f 8cbd b06c 353d b568 95bd
000000f0: 49ca 1ebe 8bb0 1ebe 8602 9f3d 307b d9bc
00000100: a040 383e 8069 403e 2654 5c3e 03ba 7f3e
00000110: 6723 95bd 94e3 b0be 36a7 603e 870a 1abd
00000120: 1e72 b13d ce78 a1bc e560 e3bd e758 80bc
00000130: db7a ab3d 32aa 4cbd a3af 07be 5ab8 9e3d
00000140: c5d9 533d ea1a c73d de04 c9bd 945a 7cbc
00000150: 8fae 93bb 5419 423e 25da 823d c9b3 b9bd
00000160: b9cc 873d acab 743e e667 bf3c dd4d fabd
00000170: 7f89 45bd f9f2 52be 9cf5 d43d c8e1 a23e
00000180: c2cf 94be 0773 3fbf 5b43 c3be 209f 25bf
00000190: 0213 81be 2d62 36bd 037c cfbe 465c 02be
000001a0: 656c e8be 41ec 00bf 08f8 09bf 81b8 febe
000001b0: fc76 d9be 3972 12bf e6dc a5be f853 87be
000001c0: cb3d abbe aa6b c5bc 3f32 92be 0a32 8ebe
000001d0: 2ad1 04bf d343 b7bd ad78 1cbf c351 f3be
000001e0: 17e4 42bf 3a18 a23d 045e 2abe f110 c1be
000001f0: 01c9 a3be a698 a0be c0fa 23bf 3084 e7bd
-0.5723388 -0.39175466 -0.3853159 -0.3173677 -0.3831127 -0.036801554 -0.43184826 -0.5464176
-0.33709776 -0.69987166 -0.4426422 -0.52553916 -0.68579143 -0.5074403 -0.2898503 -0.0779591
-0.6902672 -0.24475184 -0.22747429 -0.43938446 -0.5835786 -0.16426569 -0.084122814 -0.41809252
-0.22314778 -0.24611473 -0.462651 -0.48448318 -0.5049793 -0.49255806 -0.6442089 -0.04021041
0.05349195 -0.0053119957 -0.09312761 -0.042160675 -0.05097516 0.14997502 -0.15636897 0.050806165
0.16020162 0.05477166 -0.093818165 0.05199416 0.07097031 0.07611467 0.014644638 -0.15484273
0.039582044 -0.03713298 0.09406726 0.15834196 -0.0632657 0.00300543 0.14492665 -0.03027305
0.02674137 -0.06857248 0.044293106 -0.07295362 -0.15506853 -0.15497033 0.07764153 -0.026547998
0.17993402 0.18790245 0.21516475 0.24973302 -0.07282143 -0.34548628 0.21938786 -0.037607696
0.08664344 -0.019710924 -0.111024655 -0.015667392 0.08373042 -0.049967 -0.13250594 0.07750006
0.051721353 0.0972193 -0.098153815 -0.015402455 -0.004506893 0.18954974 0.06389264 -0.090674944
0.066308446 0.23893613 0.023364972 -0.122218825 -0.04822683 -0.20600499 0.10398409 0.31812882
-0.29064757 -0.7478489 -0.38137326 -0.6469593 -0.25209814 -0.04452722 -0.405243 -0.12730512
-0.45395198 -0.50360495 -0.5389409 -0.4975014 -0.4247359 -0.5720554 -0.32395095 -0.2643125
-0.33445582 -0.02409919 -0.2855396 -0.27772552 -0.5188166 -0.08948483 -0.61121637 -0.47523317
-0.7612929 0.07914777 -0.16637427 -0.37708238 -0.3198929 -0.31366462 -0.6405449 -0.1130451

rnn1.bias_hh_l0 f4 [128]
00000000: a7b7 edbe 08d6 1fbf 783a 38be 2db0 a5be
00000010: 785c 99be 6058 a5bd d44e 8dbe 44c6 cfbe
00000020: 0d1d 14bf 20d7 18bf 2ee0 a3be dd88 2bbf
00000030: 0f07 20bf c44d ecbe 366d 0cbf a4e2 6cbe
00000040: 9694 2bbf dfea c3bd 2df3 93be cc47 4dbe
00000050: 4e8b 3abf 43f7 07be ffbf 5abe 3b52 8cbe
00000060: d781 57be dc8e 1ebe 3bee f1be 771b bfbe
00000070: af86 33bf 7070 76be 5b66 48bf 51e5 e13d
00000080: 18c8 833c e0c0 693d 8c69 a4bd 90d7 85bc
00000090: 04ad bcbd 7515 1a3e 86c5 8e3d b656 bfbd
000000a0: cdc9 87bd ce95 ac3d 5cf5 dcbd 1062 0f3d
000000b0: 5f77 b2bd 9819 b2bc eef0 f83d 7014 d8bc
000000c0: faf8 c83d dedb eebd 25ce 0d3e 50bd 2abe
000000d0: f56b 2cbe 5663 32be 7a8e 1cbe 7048 7ebc
000000e0: d0da 2cbe c041 233d 51ae bdbd 20c8 e83c
000000f0: 1016 46bc 9479 863d 60de bfbc 5dde 10be
00000100: c016 2f3e f58d e23d 29c6 313e 6fcc 633d
00000110: 7656 14be 2411 31be 8f83 ee3d 195e 913d
00000120: 2de0 f93d 1ec2 1dbe b1aa 383e 7cea bcbd
00000130: e382 623d 383c bbbd 13b0 29be d96f b83b
00000140: b4fc 373e 0e7b a83b b1ca 7bbc 03cb e73d
00000150: b7b4 2e3e 94a3 c13d 98d9 223d dfa3 323e
00000160: 4e27 243e cfb8 18bb c573 19be e41a 78bd
00000170: d7b2 04be 77d4 57be 7229 bc3a b7a8 df3d
00000180: 2c15 88be c954 41bf 0b73 32be 9135 efbe
00000190: 4e5e c2be fc15 febd ef25 67be a683 04bd
000001a0: 7715 37bf bc4f f1be e1e4 cabe caa6 cebe
000001b0: 3400 bdbe 8b8e 77be d6a4 bcbe 52da 34be
000001c0: 11b8 bbbe 4ce8 98be e5f9 b2bd 0e21 b7be
000001d0: 0f52 ffbe 4b0b afbe cfb7 cbbe e070 15bf
000001e0: b4e3 3dbf c4fb 2fbd 71fa b4be d533 93be
000001f0: 715d 0dbf bbbf 21be e023 e2be 56f8 07be
-0.46429178 -0.6243596 -0.17991054 -0.32360974 -0.2995336 -0.08073497 -0.27599204 -0.40580952
-0.5785683 -0.59703255 -0.32006973 -0.6700571 -0.6251077 -0.4615308 -0.5485414 -0.23133332
-0.670236 -0.095662825 -0.28896466 -0.2004692 -0.7286881 -0.13277917 -0.21362303 -0.27406487
-0.21045624 -0.15484184 -0.47252068 -0.37325642 -0.70127386 -0.24066329 -0.7828118 0.11030067
0.016086623 0.057068706 -0.08027944 -0.01633814 -0.092126876 0.15047248 0.06971268 -0.09342711
-0.06630287 0.084270105 -0.10788986 0.03500563 -0.087141745 -0.02174072 0.12155329 -0.026376933
0.098131135 -0.1166303 0.13848169 -0.1667378 -0.16838057 -0.17420706 -0.15288725 -0.0155202
-0.16880345 0.039857626 -0.09261764 0.02841574 -0.012090221 0.06566158 -0.023421466 -0.14147325
0.17098522 0.110622324 0.17360748 0.055614885 -0.14486107 -0.17291695 0.116461866 0.07098026
0.12200961 -0.15406081 0.18033864 -0.09224412 0.055300605 -0.09142345 -0.16571073 0.0056285677
0.17967492 0.0051416224 -0.01536815 0.11318018 0.17061125 0.09455028 0.039758295 0.17445324
0.16030619 -0.0023303514 -0.14985569 -0.06057252 -0.12958847 -0.21077143 0.0014355613 0.10920852
-0.26578653 -0.75519997 -0.17426698 -0.46720555 -0.37962574 -0.12406537 -0.22573064 -0.032352112
-0.7151713 -0.47131145 -0.39627746 -0.40361625 -0.36914217 -0.2417547 -0.3684451 -0.17661408
-0.3666387 -0.29864728 -0.0873907 -0.35767406 -0.49867293 -0.34188303 -0.39788672 -0.5837536
-0.7417557 -0.04296471 -0.35347322 -0.28750482 -0.55220705 -0.15795796 -0.44167995 -0.13278326

rnn2.weight_ih_l0 f4 [128, 32]
00000000: a2c5 c3be ea99 87be df70 2e3f f3c5 463e
00000010: 6f9d 1ebe bd84 c43d 1011 373e f810 723e
00000020: f064 abbd af12 28bd 70b8 86be c24b 293f
00000030: 6ad4 e5bd ceef ad3e 2da0 28bd 3fb1 80be
00000040: d401 bebd bb63 bb3d a921 f13c 0437 adbc
00000050: 9f9e 05bf ac80 d83d 51f4 1dbc 833a c0bd
00000060: 2438 c9bd 12f8 3cbe 8924 90bd 063b 82be
00000070: 13c9 71be 39ab 91be e970 bdbe 4a66 a4be
00000080: ca9a 79be 95d6 98bc 2ac8 db3e 9abc f2bc
00000090: ef40 993e d830 953e 3603 103f 5d2d 6f3c
000000a0: d74f 353e ba0b 113e f354 36be a487 973d
000000b0: cb20 3dbe 1daf 3db9 2501 25be ae84 20be
000000c0: 4ad9 0a3e 488b 793d 5afa c73d 73fc 683e
000000d0: 1174 79bd 6115 37bd ad00 043e 9149 4ebe
000000e0: f8fc 953e ac83 6abe c84d a93d a079 80be
000000f0: bb16 aebd f21d bdbd ae4d bf3d ef56 81bc
00000100: 797b b83d 5ef5 aabe 64b8 da3e df30 d23c
00000110: 6ff4 333d d5a6 473e 944b 82bd 3022 3f3d
00000120: a5f9 a73d 6e11 64be dd4a 803d f562 a13e
00000130: 49f6 e1bd 4706 7b3d e6c3 95be f9c3 cdbe
00000140: c7e8 29bd 3832 843e ad6c c3be f943 eabd
00000150: d184 9cbe b932 cc3c 40e3 d0bc 6788 44be
00000160: 0077 b33d 5262 4ebe 4eb7 96be dee2 8bbe
00000170: d4e4 b3be 3ce3 a0be baf9 72bc 3114 29be
00000180: 9673 22be d06b 78be a43e 1f3d ec7a 5d3d
00000190: 94f7 e7bd 7c02 d5bc c572 123e 73e3 69bd
000001a0: e209 313e 4d46 89be f5aa 67bc 098a 123e
000001b0: 76ac c6bd 7e9d bdbc c406 c33d a621 f4bd
000001c0: 7864 44be 9bd9 b23c 6118 4cbe a919 1bbe
000001d0: 464d febd d6ab 103e 4fa2 f23d 22b6 79be
000001e0: de76 933d 29b6 33be 376c 003d 3ab6 90be
000001f0: 9f86 163d cae9 84be 4f62 eebc 56b2 04be
00000200: 647e 17be 11b3 5fbd 5eda 683e 45d1 333d
00000210: aaf8 5ebe 511e cc3c 739c 843d 41a0 c43d
00000220: 61c3 99bd 4848 ccbe 335e 0ebd 0926 633c
00000230: 8ad4 8e3c 2290 eebc 5c4f 393d c160 82bd
00000240: b8da 12be 8722 143e 5403 15bd bc2f 34be
00000250: ac14 033e a696 293c 8c90 613d 5a29 09be
00000260: 6097 c63d 33a2 9dbd 82b0 21be 90fe e2bd
00000270: d9ed 93be 9ad4 4abe bcc9 06be 0e3d 1dbd
00000280: acaf 453b ec0a 003e 00de 033e a0ba 5a3d
00000290: dc5e 5c3d 01ae 9a3e 026f bd3d e4f3 52bd
000002a0: ac3e f43d eb89 883b 5d65 da3d a7a3 383e
000002b0: 185c 6fbc efeb 96bb d70e 3ebe 97d6 593d
000002c0: 03bc fdbc 3b95 013d a3c7 37be c1f6 ac3d
000002d0: ba87 6fbc 3f47 dcbd a1d2 b1bd 36a1 39be
000002e0: 4d73 05be 0973 67bd 886a f33c a6e3 273e
000002f0: d38d 83bc d0d1 033d ca43 f53c 8332 ecbb
00000300: 5d8a bebd 93ef 6dbe 6097 073f 1b0a 153e
00000310: 2937 703d feb4 d2bd a6b4 ba3e 32f7 d23e
00000320: 636a 783d 7e07 29be 89e0 193d 673b 193f
00000330: ecf1 5e3d 7b2f 8e3e ec07 373d 541f 93be
00000340: c550 3abc f931 733d 8179 94be e2af e73d
00000350: 0e91 d0be 9ff7 45bd ad60 013e 486e f5bd
00000360: e105 fe3d f4fb 28be 3438 b1be 57f7 3cbe
00000370: a667 f7be c927 c6bd f9ba 9fbe e8e7 f5be
00000380: 60f6 e13d 6cac b8bd 663f d63c b37a 0f3d
00000390: 70bb 993d abfe 943e 241d 143e 9539 c63e
000003a0: 61cd eb3d 4eaa 53be 0ba8 85bd 24e3 733d
000003b0: b5b0 19be 5646 d4bb 9d47 c2bd b49e 56be
000003c0: 8b72 d9be 21ad 303d b205 8bbe 3a9c 8cbd
000003d0: 8b35 b13d 005a f9bb 6a12 483c 5a3b ccbe
000003e0: 1dd8 b53e 46c1 89bd f0c2 dd3d 2ced 203e
000003f0: bf1a 81bd 17ed 11be a18c d5bd d756 5cbc
-0.3823672 -0.26484615 0.6814098 0.19411449 -0.15489744 0.0959563 0.17877603 0.23639286
-0.08368862 -0.041033443 -0.2631259 0.6613122 -0.112221554 0.3397202 -0.04116838 -0.25135228
-0.092776924 0.091498815 0.029434996 -0.021144398 -0.5219516 0.10571417 -0.009640769 -0.0938616
-0.09825161 -0.18454006 -0.070382185 -0.25435656 -0.2361186 -0.28450945 -0.37000206 -0.3210929
-0.24375454 -0.018657008 0.4292615 -0.029630948 0.29932353 0.29138827 0.562549 0.014598218
0.17706238 0.1416463 -0.17805843 0.07398918 -0.18469541 -0.0001808968 -0.16113718 -0.15675613
0.13559452 0.060923845 0.09764548 0.22752552 -0.060901705 -0.044698123 0.12890883 -0.20145251
0.29294562 -0.22901791 0.08266789 -0.25092793 -0.08500429 -0.09234227 0.09340988 -0.015788523
0.090079255 -0.33390325 0.42718804 0.02565807 0.043934282 0.19497235 -0.06362072 0.046663463
0.08201913 -0.22272274 0.06264279 0.3152081 -0.11033303 0.061285283 -0.2925102 -0.40188578
-0.04148176 0.25819564 -0.3816885 -0.11438746 -0.3057008 0.02492653 -0.025498986 -0.19192658
0.08762932 -0.20154694 -0.29436725 -0.27321523 -0.3513552 -0.31423366 -0.014830047 -0.16511609
-0.15864405 -0.24259877 0.038878098 0.054072306 -0.11326519 -0.026002161 0.14301594 -0.057101678
0.17288926 -0.26811448 -0.01413988 0.14310469 -0.09700863 -0.023146387 0.09522775 -0.119204804
-0.19178951 0.021832278 -0.19931175 -0.15146507 -0.124170825 0.1412805 0.11847364 -0.24385884
0.072004065 -0.17549957 0.0313532 -0.28264028 0.03674948 -0.25959617 -0.029099612 -0.12958655
-0.14794308 -0.05461413 0.2273955 0.043900747 -0.21774545 0.0249168 0.06475153 0.096008785
-0.07507969 -0.39898896 -0.034757804 0.013864049 0.01743533 -0.029121462 0.0452417 -0.063661106
-0.14341247 0.14466296 -0.036380127 -0.17596334 0.12800854 0.010350859 0.05506949 -0.1339468
0.09696841 -0.07696953 -0.15789989 -0.1108371 -0.288924 -0.19807664 -0.13162893 -0.038388304
0.0030164523 0.12504166 0.12877655 0.053400636 0.053801402 0.3021088 0.09249689 -0.051502123
0.11926016 0.0041668317 0.10663865 0.18031178 -0.014609359 -0.004605762 -0.18560348 0.053183164
-0.03097344 0.031636458 -0.17947249 0.08445502 -0.014619762 -0.107557766 -0.086827524 -0.18127903
-0.13032265 -0.05650619 0.029713884 0.16395435 -0.016058838 0.032182515 0.02993955 -0.00720817
-0.093037345 -0.23235922 0.52965355 0.14554636 0.058646355 -0.10288428 0.3646595 0.4120422
0.060648333 -0.16506764 0.03756765 0.59856266 0.054429933 0.277706 0.04468529 -0.2873484
-0.011371796 0.05937383 -0.2899895 0.11312844 -0.40735668 -0.048331853 0.12634535 -0.11983925
0.12403465 -0.16502362 -0.34613192 -0.18453728 -0.48321265 -0.09675557 -0.31197336 -0.48028493
0.110333204 -0.09017262 0.026153278 0.035029124 0.07506454 0.29100546 0.14464241 0.38715807
0.11513782 -0.20670435 -0.06526192 0.05954279 -0.15008815 -0.0064781113 -0.094863154 -0.20958978
-0.42470202 0.04313386 -0.27152783 -0.06865735 0.08652791 -0.007609606 0.0122114215 -0.39889032
0.35516444 -0.06726317 0.10828197 0.15715474 -0.063039295 -0.14250599 -0.104272135 -0.013448439
